train/exp/weight1.pth (torch, 56519 bytes, 10 tensors)

input.weight f4 [10, 4]
000000 53 ab ae 3e 4d b5 1a be 35 cb d6 bd e2 0c 98 3e
       0.34115085 -0.15108223 -0.104879774 0.2969733
000010 02 02 f1 be 12 87 99 3e a8 a9 d2 bd 0a 3d 82 3e
       -0.47071844 0.29985863 -0.102862656 0.25437194
000020 c0 4b 0f 3e ea c5 79 3d e2 0d 37 3e 94 59 3b 3c
       0.1399374 0.06097976 0.1787639 0.011434931
000030 3c 24 89 3e 60 36 ba bd 3a 34 56 bd 8d 91 89 bc
       0.26785457 -0.090924025 -0.0522959 -0.016793037
000040 30 6c 94 3d 00 e7 02 bb 64 c9 df 3e 50 54 1f 3e
       0.07247198 -0.0019974113 0.43708336 0.15559506
000050 6e 2f ea bd 15 a2 8f be ce f6 8d 3d f7 c0 7c bd
       -0.11434828 -0.28053346 0.0693184 -0.061707463
000060 d4 11 24 be 80 1f c4 3c d4 9b 98 3e 38 25 8b 3e
       -0.16022426 0.023940802 0.29806387 0.27176833
000070 73 8e bf be 26 3d dd 3e fb 77 33 3e f0 ed e8 3e
       -0.37413368 0.43210715 0.17526238 0.45494032
000080 b2 82 ad 3e fe 23 10 bf 3c 11 06 bf 8d c8 90 be
       0.33888775 -0.5630492 -0.5237005 -0.28278008
000090 a4 4a 02 3f 11 43 ed 3c bf bc 42 3e 78 84 50 be
       0.5089514 0.028962644 0.19017313 -0.20363033

input.bias f4 [10]
000000 cd 1f 03 3f 5c a0 58 be 1e f0 d7 3e e9 2a 21 3d
       0.512204 -0.21154922 0.42175382 0.039347563
000010 82 dd 86 be 3d a9 b0 3e d4 e3 87 be 61 76 59 3e
       -0.26340872 0.3450412 -0.26541007 0.21236564
000020 96 e3 29 be 0c 8f 9f bc
       -0.16590723 -0.01947739

h1.weight f4 [100, 10]
000000 32 a8 9b be e0 63 1a be d8 b6 2f 3e dc 6c 9d bd
       -0.3040176 -0.15077162 0.17159593 -0.07686779
000010 dd 44 a1 3e b9 c8 81 3e c0 98 72 bc 7c 24 58 be
       0.3149785 0.25348452 -0.014806926 -0.21107668
000020 46 31 45 3e 78 ff c8 3d 65 52 51 be 6e 55 52 3e
       0.19257078 0.09814352 -0.20441587 0.20540401
000030 0a 97 44 3e 8f 98 8f 3e d4 84 35 be 80 35 55 bd
       0.19198242 0.2804608 -0.17726451 -0.052052975
000040 00 bc c8 bb 08 2f 3d 3d 36 c0 75 be b8 c9 65 be
       -0.006125927 0.04618743 -0.23999104 -0.22440231
000050 4a 7e 2d 3e 74 dd 97 bd ff 63 2f 3e 26 e0 04 bd
       0.16942707 -0.07415286 0.17127989 -0.032440327
000060 bc a5 d4 3d 31 ba 94 bc c0 7a eb 3d 3d 10 62 3e
       0.10383174 -0.01815519 0.11498022 0.22076507
000070 53 be e4 be 1e a0 32 3e 41 f3 36 be b0 52 74 be
       -0.44676456 0.17443892 -0.17866232 -0.23859668
000080 1c fe 93 3d 75 67 f6 bc 86 2f 3e 3e 9f a5 69 be
       0.07226202 -0.030078629 0.18572816 -0.22817086
000090 10 ef 8f be 4c 2f 8f 3e fa 7b 12 be c4 90 79 3e
       -0.28112078 0.27965772 -0.14305106 0.2437163
0000a0 38 2c e2 3d 92 d2 72 be e0 db 8f 3d e3 7b de 3d
       0.1104359 -0.23713139 0.0702436 0.10863473
0000b0 8c d0 58 be 8f 0d 82 be dc d3 dc 3d e2 51 5c 3d
       -0.21173304 -0.2540097 0.107825965 0.053789027
0000c0 13 ae 7a bd 32 7f ee bc 24 b9 9d 3e 00 a7 6f bd
       -0.061201166 -0.029113386 0.30805314 -0.058508873
0000d0 9b 96 4b 3e 60 cb 2b 3e 59 51 51 be e7 43 bd be
       0.1988167 0.167768 -0.20441188 -0.36965868
0000e0 0d 6a 9b 3e 16 27 23 3d 38 64 82 3e e3 03 14 3e
       0.30354348 0.039832197 0.25467086 0.14454608
0000f0 b0 e1 da 3d ca e0 71 3e 66 6a a4 3e 27 e7 6e be
       0.10687578 0.23620906 0.32112426 -0.23330365
000100 38 f2 21 3d bc 5a 23 3e a6 95 6a 3e 8d f2 7d 3e
       0.03953764 0.15952581 0.22908649 0.24799557
000110 27 22 bb be 29 24 44 be e2 d5 43 be f8 b8 22 3d
       -0.36549494 -0.19154419 -0.19124559 0.03972718
000120 5f 5e a1 3e 26 8c 4c be 58 8e 2c 3e 9f 3a 33 be
       0.31517312 -0.19975337 0.16851175 -0.17502831
000130 a1 3a 98 be e4 a5 89 bd f6 92 3a 3e d9 4f 96 3e
       -0.2973223 -0.06721094 0.18220124 0.29357794
000140 62 1a 49 be 40 8b 8c 3d 5b b4 8b 3e 22 94 56 3e
       -0.1963897 0.06862497 0.27286038 0.20954946
000150 76 cf 49 3e 76 1d 66 3e da d1 4c 3e 18 48 a7 3d
       0.19708046 0.22472176 0.20001927 0.08168048
000160 c8 6e 5d be d2 f6 87 be a0 a0 29 be 28 d4 16 bd
       -0.21624291 -0.26555496 -0.1656518 -0.03682342
000170 0e ff 54 be c7 69 f1 3d 5c 6f c8 3d 42 ae 41 be
       -0.2080042 0.117877536 0.09786865 -0.1891413
000180 8c e9 f8 3d 8d 08 a3 3d 80 a5 fd 3d 69 0e 89 3e
       0.121539205 0.07960615 0.12385082 0.26768807
000190 eb e7 a6 bd 59 30 9e 3e 50 f8 3e 3b d9 b3 35 bc
       -0.081497036 0.3089626 0.0029139705 -0.011090242
0001a0 83 d2 98 be 3f 6a 95 be d7 2c 3d be 94 d5 97 bd
       -0.29848108 -0.29182622 -0.18474136 -0.07413784
0001b0 af bc c8 3d 16 1c 14 bd 1a dd 5f be 64 2d f9 3d
       0.098016135 -0.036159597 -0.21861687 0.12166861
0001c0 15 6a 05 3e f5 0f 5f 3e ff 90 27 be 08 4a 50 bc
       0.13028748 0.21783431 -0.16363905 -0.012712963
0001d0 90 c5 eb bd 18 64 28 bd 15 43 c2 be 70 e3 9c bd
       -0.115122914 -0.04111108 -0.37941805 -0.07660568
0001e0 d2 57 c6 bd c6 79 0a 3e c8 a1 6c 3d f4 f9 9f 3d
       -0.09684719 0.13523015 0.057771474 0.07811347
0001f0 11 9a a1 3e f3 cc 9d 3e ce db 5c 3e e0 fb 24 3c
       0.31562856 0.30820426 0.21568224 0.010069817
000200 94 03 60 be fa 10 7d 3e 1e f3 a1 bd d0 6e d1 bc
       -0.21876365 0.24713507 -0.07907699 -0.025565535
000210 ee 7b 8b be 48 da 7f bd b1 db 50 be 5f c7 94 3e
       -0.27242988 -0.06246403 -0.20396306 0.29058358
000220 31 f9 8b be f2 68 7c be 20 ee 2f bc ce 17 2f be
       -0.27338555 -0.24649408 -0.010737926 -0.17098925
000230 30 bb e7 3d 84 4a f9 bd ca 17 18 be d0 b8 92 3c
       0.11315 -0.12172416 -0.14852825 0.017910391
000240 1e 69 6a 3e de c7 63 be 0e 11 18 3e 9a 08 50 3e
       0.22891662 -0.22244212 0.14850256 0.20315781
000250 e9 60 9e 3e 52 a6 62 be 4a f8 bd 3d 6c 70 6f be
       0.30933312 -0.22133759 0.09275873 -0.2338273
000260 4b ca 86 3e a1 fb 48 bd 5e 0d 43 3e 36 4a a3 3d
       0.26326212 -0.049068097 0.19048068 0.07973139
000270 10 c2 c9 bc 04 5f bd bd 1e 10 54 3e 43 f5 43 3e
       -0.024628669 -0.092466384 0.20709273 0.19136529
000280 fa b1 cf 3d 68 90 c5 3d 2e 9d 7a be 9c d1 9d 3e
       0.10141368 0.09646684 -0.24474022 0.30823982
000290 8b 29 8d 3e 76 44 a9 3e 7e 5f 6f 3e cf d8 8e be
       0.27570757 0.33060044 0.23376271 -0.27899787
0002a0 3d 51 18 3d 9b 5b ac 3e 5e a3 76 be 0d e3 92 3e
       0.03718685 0.3366364 -0.24085757 0.2868885
0002b0 54 ae 7e be 80 19 64 be a0 4e 1e 3e bd a8 68 be
       -0.24871188 -0.22275352 0.1545968 -0.22720619
0002c0 9e 5f 94 bd 0a 93 6b 3e fb 3e 80 3e 41 20 99 3e
       -0.072448 0.2300531 0.2504805 0.2990742
0002d0 94 6a 83 bd c0 b0 7b be bf 6a 9f 3e 8c f6 89 bd
       -0.064168125 -0.24579144 0.31136128 -0.06736478
0002e0 d3 3a 05 be 58 e0 9d 3d 0c 74 62 be b2 d6 54 3e
       -0.13010721 0.07708806 -0.22114581 0.20785025
0002f0 66 f2 4a 3e b1 78 80 be be fc 84 be 00 ec e2 bc
       0.1981903 -0.2509208 -0.25974077 -0.027700424
000300 f0 02 08 3e 20 0e 16 bc 51 33 24 be 80 e7 ec 3b
       0.1328237 -0.009158641 -0.160352 0.0072297454
000310 e1 2e 98 be 84 dc 64 be ca 8f 57 be 2f 56 85 3e
       -0.29723266 -0.22349745 -0.21050945 0.26042315
000320 4d 79 8f 3e da fa db bd 82 08 fa 3c 4b a7 fd 3d
       0.28022233 -0.107412055 0.030521635 0.12385424
000330 18 32 1b 3d a3 cc 83 be 00 c2 3a 3e a1 f2 71 3e
       0.03788957 -0.25742063 0.18238068 0.23627712
000340 e6 e2 0a be 38 b5 72 3c c7 38 9e 3e 6b 87 8d 3e
       -0.13563117 0.014813714 0.30902693 0.27642378
000350 4f 67 37 be 9c 25 c5 3e 90 45 a0 3d a0 2c 39 be
       -0.17910503 0.38505256 0.07825768 -0.1808343
000360 f8 42 31 3e 7a 35 9e be 48 b5 e5 3e 03 b1 1f be
       0.17310703 -0.30900174 0.4486487 -0.15594868
000370 4c 2b b7 3d 70 34 c5 3d 84 0b 9a 3d 65 4a 86 3e
       0.08943805 0.09629142 0.07521728 0.26228634
000380 50 7f 06 be bd b4 08 be 2d 4e 8c be 40 a1 54 bc
       -0.13134503 -0.13350196 -0.27403393 -0.012977898
000390 1d 66 19 be 00 9a 4f 3c 6f 30 aa bd 88 e1 d6 3d
       -0.1498036 0.012670994 -0.08310019 0.104922354
0003a0 e0 b1 89 3e cc fa 98 3d 0e a1 d0 bd 66 d3 8d be
       0.2689352 0.07469711 -0.10186969 -0.27700347
0003b0 87 35 8d be 5b 7d 8b 3e ff 17 5f be 97 fc e5 3d
       -0.275799 0.27244076 -0.21786498 0.11229818
0003c0 60 a7 3f 3c aa 5b 4e be 2a 5e 36 3e 26 79 35 3e
       0.01169762 -0.20152155 0.17809358 0.17721996
0003d0 a0 75 82 3c 91 05 38 be 93 97 09 be c0 b2 8e 3b
       0.015925229 -0.17970873 -0.13436727 0.0043548048
0003e0 43 02 39 be 2f ad 34 be 20 36 41 bd 92 7c ba bd
       -0.18067269 -0.1764419 -0.04717076 -0.09105791
0003f0 58 fb 9e 3d 52 3a aa bd 70 b4 2b bd ac 30 f7 bd
       0.07762784 -0.08311905 -0.041920125 -0.1206983

h1.bias f4 [100]
000000 01 ca 00 be 6a d3 94 be ce 0a 9c 3e c8 a0 89 3d
       -0.12577058 -0.29067546 0.30476993 0.0672012
000010 02 f2 16 3e 8f bf cc 3c 2d b0 e1 3d 84 83 47 be
       0.14740756 0.024993686 0.11019931 -0.19483763
000020 72 b9 7b be 39 79 62 3e 48 b3 20 3e 49 e1 39 3e
       -0.2458246 0.22116555 0.1569339 0.18152346
000030 0d b4 a0 be 20 24 af 3c 57 05 97 be 05 12 49 bd
       -0.31387368 0.02137953 -0.2949626 -0.04908945
000040 a9 63 9a 3c da cf 63 be 74 53 a0 be 80 66 08 3b
       0.01884635 -0.22247258 -0.3131367 0.0020813048
000050 cf 36 98 3e 91 6c 8f 3e 98 25 45 be 4c 56 87 bd
       0.29729316 0.28012517 -0.19252622 -0.06608257
000060 1f 65 87 be e4 e2 7c be 92 92 b1 bd de e3 a8 3e
       -0.26444337 -0.24695927 -0.08670534 0.3298635
000070 4f 7d 9a bd 30 e2 95 3c 96 a1 a1 3e a0 40 a9 3d
       -0.07543432 0.018296331 0.31568593 0.08264279
000080 21 88 89 3e 64 f8 63 3e de bd 99 3e 30 20 5e 3d
       0.2686167 0.22262722 0.3002767 0.054229915
000090 c1 ee 82 be b6 48 8b be 25 4f 27 be 63 79 a3 3e
       -0.2557278 -0.27203912 -0.16338785 0.31928548
0000a0 3c f5 49 3e 26 61 00 3e a3 98 76 be 86 6d 3b be
       0.19722456 0.12537059 -0.24081664 -0.18303499
0000b0 57 f4 8a 3e 28 74 06 bd 2a 35 a1 be a8 1f 20 bd
       0.27139542 -0.03282562 -0.31485873 -0.03909269
0000c0 56 c4 5a bd a0 86 c0 3b 1b bf 0f 3e 94 26 f6 3d
       -0.053409897 0.0058754236 0.14037745 0.12019077
0000d0 2e c7 77 be 2c 4f 15 3c 70 c0 d0 bd 9f 93 68 3e
       -0.24197075 0.009113114 -0.101929545 0.22712563
0000e0 33 4f 2b 3e b6 bf 45 3e 75 1a 98 3e 0d 60 2b 3e
       0.16729431 0.19311413 0.29707685 0.16735859
0000f0 41 cb a1 be e4 6a a3 3d dd 32 5e be 5f 41 af 3d
       -0.31600383 0.07979372 -0.2169909 0.085573904
000100 a8 a7 96 3d f8 0b a9 3e 3e 3d 5d be bd a1 9e be
       0.07356197 0.33016944 -0.21605393 -0.30982772
000110 6c 3a 21 bd 76 28 ca 3d ab d7 77 3e 7a a3 8c 3e
       -0.039362356 0.098709986 0.24203365 0.27468473
000120 f6 62 79 3e 72 08 26 3e ce 14 b9 bd 95 32 53 bd
       0.24354157 0.16214159 -0.09037171 -0.05156191
000130 bf 23 0a be e5 5d 94 3d 17 32 61 be 70 a8 02 3e
       -0.13490199 0.072444715 -0.21991764 0.12759566
000140 e6 1f 51 3e da d9 86 3e 52 96 9f be d3 90 8e 3e
       0.20422325 0.26338083 -0.31169373 0.27844867
000150 e0 bd 41 be 60 84 d3 bc ca f1 a3 3e 13 02 3a 3e
       -0.18920088 -0.025819957 0.32020408 0.18164854
000160 d3 7e 4a bd dc 5c 38 3e 6f 7a 9d be e1 35 88 3e
       -0.049437355 0.18004173 -0.30757472 0.26603606
000170 82 91 a0 3e 86 e9 e6 3c d2 39 48 3d 96 f7 97 bd
       0.31361014 0.028187525 0.048883267 -0.0742027
000180 d5 df 16 be 76 77 12 be ce ef 5c bb b4 75 84 be
       -0.14733823 -0.14303383 -0.003371227 -0.2587105

h2.weight f4 [80, 100]
000000 b3 85 a5 bd 50 cf 33 3c 35 5e 1b bd a6 6c fe 3b
       -0.08082142 0.01097472 -0.03793164 0.0077644167
000010 6e 0e 04 3d 99 45 91 ba 32 70 c8 3d 8a dd 13 bd
       0.032240324 -0.0011083364 0.097870246 -0.036099948
000020 fd bf 63 bd 57 16 1e 3d 02 51 8f 3b cf 22 3d 3d
       -0.055603016 0.038595524 0.0043736706 0.046175774
000030 97 f6 af 3d 93 38 6c bd 30 44 18 bd 8a 88 0f 3e
       0.08591955 -0.05767114 -0.037174404 0.1401693
000040 97 c9 0f bd 2c df dd 3c 28 dd a6 bd 05 48 b6 bd
       -0.03510436 0.027083956 -0.08147651 -0.089004554
000050 9c d9 fd 3c e8 8c b0 bc 62 d5 5d 3d db a6 12 3d
       0.030987553 -0.021551564 0.054158576 0.035803657
000060 80 24 81 3a e3 d7 55 bd a6 51 28 3d 20 a2 e8 3d
       0.0009852797 -0.05220784 0.04109349 0.11359048
000070 7a df 21 3d 37 cf 7c bd d5 9b a1 bd 2d 10 d2 3d
       0.039519764 -0.061721053 -0.07891051 0.102569915
000080 70 ab 6f 3d 95 ef 61 3d 4f f9 4c 3d f6 87 4d 3d
       0.058513105 0.055160124 0.050042447 0.05017849
000090 02 74 11 3d 6e ff 47 3d cb 15 80 3d a3 dc 0e bd
       0.035511024 0.04882758 0.06254157 -0.034878384
0000a0 5f f7 d4 3d 72 13 a9 3d 40 9e 48 bb 1c a2 35 3d
       0.10398745 0.08255662 -0.0030611902 0.044344053
0000b0 d4 47 03 3d 29 80 9f 3d 85 bc 81 3d dd fa 25 bd
       0.032050923 0.077881165 0.06334785 -0.040522445
0000c0 cc 7f 8d 3d a1 69 8f 3d 15 3b 2c 3d 5f 0d c5 3d
       0.06909141 0.07002569 0.042048533 0.09621691
0000d0 7e e5 46 3d 29 8b c6 3d a8 82 a2 3d 82 71 68 bd
       0.048558705 0.096945114 0.07935077 -0.056748874
0000e0 81 2d 1b bc 3b 3e 1f 3d d3 46 48 bd 51 a6 9d bd
       -0.009471298 0.038877707 -0.04889567 -0.07697738
0000f0 11 32 8a 3d b2 4e 0b 3d 40 44 a5 bd ab 7f ae 3d
       0.06747831 0.034010597 -0.08069658 0.085204445
000100 41 67 2c 3e b5 1d 90 3d 6f 06 bb 3d 03 f5 21 bd
       0.16836263 0.07036916 0.091320865 -0.039540302
000110 89 be 06 3d 30 21 e3 bd 1f de c8 3a 5b 74 2a bd
       0.032896552 -0.110903144 0.0015324986 -0.04161487
000120 14 fd 9b bc 40 c7 23 3e 22 32 4c 3d 52 a7 c2 bc
       -0.019041575 0.15993977 0.049852498 -0.023761425
000130 b3 5b 4f bd 62 25 bb 3c a3 d2 1b bd 9d 30 a2 3c
       -0.05062456 0.022844974 -0.038042676 0.019798571
000140 61 62 96 3d 21 d9 c6 3d 01 f9 aa 3d 9f 06 74 bc
       0.07342983 0.09709383 0.08348275 -0.014894157
000150 91 60 1f 3e 2c 68 f8 bc b4 f8 18 bc ab a7 34 3d
       0.15564181 -0.03032311 -0.009336639 0.044105213
000160 60 1e f9 3c a4 df 73 bb 68 10 60 3c cf 58 a7 bd
       0.030409992 -0.0037212158 0.013675787 -0.08171236
000170 bb c9 b0 3d 0f 26 9b bd 18 43 24 bd 32 0b 8f bd
       0.08632227 -0.075756185 -0.040103048 -0.06984557
000180 4d 9d 9a 3d 1f b5 8c 3d 19 86 bc bc cd 81 5f bd
       0.07549534 0.068704836 -0.023013161 -0.054567147
000190 f1 4a b7 3d 24 b5 ee 3c c2 f4 b9 3d ad d8 30 bc
       0.08949841 0.029139109 0.09079887 -0.010793847
0001a0 39 ac 95 3d 9b e3 d9 3d 2e 0f a3 bc b0 ff 96 bb
       0.073082395 0.106391154 -0.0199047 -0.004608117
0001b0 f5 55 95 3d 35 b8 ab 3d 1e 7d e4 3d fb 5a 11 bb
       0.07291786 0.08384744 0.11156677 -0.0022179473
0001c0 ad 00 2b bd 2d b5 7a bd ef 5f cc 3d e3 67 e8 3c
       -0.04174869 -0.06120794 0.099792354 0.02836985
0001d0 65 1f e9 3d 2b 91 a7 3d 2d 2f 56 bd a0 ba de 3b
       0.11382941 0.081819855 -0.052291084 0.00679715
0001e0 88 5b 09 ba 6e b0 c8 3c c3 f9 86 3d ac e6 f0 3d
       -0.00052397745 0.02449819 0.06590607 0.11762747
0001f0 03 a6 68 bd aa ac 4a bd 95 7d 91 bd e7 4e 86 bd
       -0.056798946 -0.04948107 -0.07104031 -0.06558018
000200 a9 93 e1 3d 70 19 7d bd 8e c8 6b 3c 99 e9 42 3c
       0.11014492 -0.061791837 0.014391078 0.011896514
000210 20 e4 04 3d f4 fe 79 3b 86 25 a0 3d e8 01 61 3c
       0.03244412 0.0038146349 0.07819657 0.013733365
000220 07 dc 92 3d f4 d4 b0 3c 40 7b a3 ba 51 a6 cc bc
       0.07170873 0.021585919 -0.0012472644 -0.02498165
000230 c6 8b 9f 3d 71 43 ed 3c ed 46 90 3d b1 30 96 3d
       0.077903315 0.028962823 0.07044778 0.07333506
000240 14 0d a7 3c c3 0f ac 3d 8f 59 c1 bd 28 72 23 3c
       0.020391978 0.08401444 -0.0944091 0.009975947
000250 9e ab 31 3e 9d b3 c6 bc 07 64 62 bc ba 5e a1 bb
       0.17350623 -0.024255568 -0.013817794 -0.0049246224
000260 06 f1 06 3d f1 54 bf 3d 0c 84 87 3d 4b 1c 91 3d
       0.0329447 0.09342373 0.06616983 0.070854746
000270 66 3d c1 bc 74 a3 82 3d eb 70 75 bc 36 e1 90 3d
       -0.023588847 0.063788325 -0.014980535 0.070742056
000280 6c 6c f0 bc 98 63 ae bd 30 05 ea 3b 89 99 09 3e
       -0.029348575 -0.0851509 0.0071417317 0.13437475
000290 1a 71 c4 3d e4 95 5c 3c 00 c6 b9 39 72 63 59 3d
       0.09591885 0.013463471 0.0003543347 0.053073354
0002a0 98 60 4d bc 4e c0 ee bd b4 e9 7c bd 4c 60 ce 3c
       -0.012535237 -0.11657773 -0.061746314 0.025192402
0002b0 40 8f 03 bc f6 9f 42 3e 40 93 c0 bc 60 61 d2 3d
       -0.008029759 0.19006333 -0.023507714 0.10272479
0002c0 76 1d dd bd 16 77 72 bd 50 b7 16 bc 1a 92 74 3b
       -0.10796635 -0.0591956 -0.009198979 0.0037318529
0002d0 f8 e5 ee bc 11 1e f3 3c dd a5 b1 bd 51 20 d3 3d
       -0.029162392 0.029677423 -0.08674214 0.10308898
0002e0 18 fa 8f 3c 3f 23 9d 3d ff e6 2d 3d 99 3a 34 3d
       0.017575309 0.07672738 0.042456623 0.044001196
0002f0 52 e1 87 bd 1d 32 4e 3d 90 d3 64 bd 57 40 8d 3d
       -0.06634773 0.05034076 -0.055865824 0.068970375
000300 59 c3 3d bd 17 ac 62 bc 9f 96 86 bd f8 b7 83 bd
       -0.046328876 -0.013834975 -0.065716974 -0.06431574
000310 90 eb 6a bd 98 6e 22 bc 87 6b 85 3d 80 c4 8a 3c
       -0.057353556 -0.009914063 0.0651465 0.016939402
000320 1e 4e 51 3d fa 4d 27 bd 93 23 7e bd b8 9a ac bc
       0.05109989 -0.04084585 -0.062045645 -0.02106987
000330 e1 fe c0 3d f0 2a 48 bc d8 69 ac bd bd b2 a0 3d
       0.09423614 -0.012217268 -0.084186256 0.078465916
000340 4c 53 c7 3c e0 2d 8e 3c 14 9d 8c 3c 61 e3 8e 3d
       0.024331711 0.01735586 0.017164744 0.06976963
000350 40 82 3a bd f5 42 95 3d 67 ef c4 3d 8c 3b d3 bc
       -0.045534372 0.07288162 0.09615975 -0.02578523
000360 73 41 81 3d d6 fb 61 3d a9 ca bf 3d 08 a9 be bc
       0.063113116 0.05517181 0.09364826 -0.02327396
000370 2a a8 73 bd 3c 0b 18 bd d8 55 8b bd 60 d5 60 3b
       -0.059486546 -0.03712009 -0.06803483 0.003430687
000380 c9 74 c5 3d 1d af c6 3d 51 b2 9a 3d d0 1e 22 3c
       0.096414156 0.09701369 0.075535424 0.009895042
000390 c0 44 0e 3b 31 9a 87 3d c2 36 73 3d 68 96 22 bc
       0.0021708459 0.066212066 0.059378393 -0.009923555
0003a0 58 30 cf bc e2 f5 21 3d c0 66 63 bb 3d e1 8f bd
       -0.025291607 0.039541133 -0.0034698695 -0.07025383
0003b0 80 a8 40 bd 31 17 a6 3d b9 8e aa 3d ed 9a 1f bd
       -0.047035694 0.08109892 0.083280034 -0.038966108
0003c0 8c cc af bc dd 01 4b bd 36 b9 05 bd ed af ba 3d
       -0.02145984 -0.049562324 -0.032647334 0.091155864
0003d0 58 26 b6 bd 7e 74 43 3d 5d 12 b8 bd d3 6a 43 bd
       -0.08894032 0.047718517 -0.089878775 -0.047709297
0003e0 88 d1 a6 bc a0 0e e3 3b 4c 09 85 bc e3 3b 3b bd
       -0.020363584 0.0069292337 -0.016239785 -0.04571141
0003f0 47 b2 36 bd 10 22 79 bd 98 f3 8e bd 8a 30 7f bd
       -0.044603612 -0.0608235 -0.069800556 -0.06230215

h2.bias f4 [80]
000000 51 47 cc 3d a2 30 21 bd 34 de 85 bc f9 f0 9e 3b
       0.0997454 -0.03935302 -0.016341306 0.0048505035
000010 48 91 8e bd e7 48 47 3a 93 36 51 bd 38 27 e1 3c
       -0.06961304 0.0007602111 -0.051077437 0.027484521
000020 d0 fd f3 3b 08 92 b7 bd c4 6e bc 3d 84 86 51 3c
       0.0074460283 -0.089634 0.09200814 0.012788419
000030 64 6a b6 3d c0 21 31 3c e7 43 27 bd c4 66 41 bd
       0.08907011 0.010811269 -0.04083624 -0.047217146
000040 c0 27 44 bc 24 78 00 bc 8c 6d cb 3c 0d 6c 16 bc
       -0.011972368 -0.007841144 0.02483251 -0.009181035
000050 75 a9 18 bd a2 18 0b 3d 5a d5 f5 3d 98 6d 61 bc
       -0.03727098 0.03395904 0.12003584 -0.013759039
000060 e3 a3 39 3d bb 4b 8e bd ba 54 87 bd 67 17 cb bd
       0.04532231 -0.06948038 -0.06607957 -0.09916573
000070 dd 4c 4e bd ff d0 88 3d 7b 05 c6 3d 83 3b ca 3d
       -0.05036627 0.06680488 0.09669014 0.09874632
000080 61 4e be 3c c7 32 50 bd 00 28 27 bc 86 8d 60 3d
       0.023230733 -0.050829675 -0.010202408 0.054822467
000090 7f 21 86 3d b8 8a c8 bc c0 8d 8b bc 37 43 9f bd
       0.065493576 -0.024480209 -0.017035365 -0.07776492
0000a0 ca 6c 11 3d 16 e5 b8 3c 0a 06 44 bd 46 cb b2 3c
       0.03550414 0.022570174 -0.04785732 0.021825444
0000b0 c0 91 0a 3d 13 64 55 bd e3 0f e8 3d 57 21 64 bd
       0.033830404 -0.05209739 0.11331155 -0.055695858
0000c0 28 b1 84 3d 9c 3d 05 bd 9d f7 7f bd 78 f9 f2 bc
       0.064791024 -0.03252946 -0.062492 -0.029659972
0000d0 db ec b7 bb a7 22 aa bc 61 be 83 3d 51 cd 94 bd
       -0.005612952 -0.020768477 0.06432796 -0.072657235
0000e0 43 37 6b bd 14 14 b7 bc 71 29 8e bd a3 03 50 bd
       -0.05742575 -0.022348441 -0.06941498 -0.05078472
0000f0 d2 66 a7 bd 02 c6 49 3d 2d 86 1f bd 89 f3 83 3d
       -0.08173908 0.0492611 -0.03894632 0.06442935
000100 df 9d c5 3d de b8 85 bd d5 4b b3 3d e0 f4 f6 bb
       0.09649252 -0.06529401 0.08754698 -0.0075365156
000110 cd 55 bc 3d 35 2a 61 3d 6e 4c 5c 3d 0c a2 a3 bc
       0.09196053 0.054971892 0.053783827 -0.01997473
000120 14 9b bc 3c 30 fa e9 bb df 72 33 3d 7e 20 eb 3c
       0.023023166 -0.0071404204 0.04381072 0.028702017
000130 b0 1e 94 bd 6f 8f d3 3d eb 48 9c bd a9 d5 b9 3d
       -0.07232416 0.10330092 -0.076310955 0.090739556

h3.weight f4 [50, 80]
000000 99 f7 44 bd 9b 10 74 3d c0 45 a8 3d 5e e9 1f be
       -0.04808769 0.05958615 0.08216429 -0.15616366
000010 e2 43 84 bd 5c 28 01 3d a0 fd f5 bc 58 cf d8 3d
       -0.0645826 0.03153263 -0.030028164 0.10586423
000020 9c 2e 8c 3d 4a 95 97 bd 8f 19 f0 bd 81 95 ee bd
       0.068448275 -0.074015215 -0.11723625 -0.11649609
000030 61 aa ec bc 70 8a 34 bd 0c 8f 8b 3d 7c 5a 9e bd
       -0.028889837 -0.044077337 0.068143934 -0.07732102
000040 dd e3 e1 bd 19 0d 69 3d a2 7a 09 bd 67 4b fc 3d
       -0.110297896 0.056897257 -0.033564217 0.12319069
000050 1d 81 0f 3e 70 51 ce 3c 08 2d 41 3d 5a 37 db 3d
       0.14014097 0.025185317 0.047162086 0.10703917
000060 f6 df 90 bc e6 d1 9d 3d 56 b1 c3 3d ec ff dc bd
       -0.017684918 0.077060506 0.095553085 -0.10791001
000070 04 67 96 3d da a3 a0 3d 4a 88 06 3d 14 bb 2a 3d
       0.073438674 0.07843752 0.03284482 0.041682318
000080 85 8f 11 3e 1e 59 07 bd 07 c9 88 bd db 0d 65 bc
       0.14214905 -0.033043973 -0.06678968 -0.013980354
000090 b8 0f df 3d 0c 48 66 3d c4 cf ea bc 11 62 71 bb
       0.1089167 0.056221053 -0.028663523 -0.0036832134
0000a0 60 2a c0 3c 44 19 20 bd 97 fa 71 3d d6 48 86 3d
       0.023457706 -0.039086595 0.05907687 0.06556861
0000b0 97 19 34 3d 70 e7 7a 3a 19 08 74 bd dc fe 0d bd
       0.043969717 0.000957123 -0.059578035 -0.03466688
0000c0 f1 c4 08 3e 00 22 f1 3b 18 22 05 bd e2 21 15 bd
       0.13356377 0.0073587894 -0.032503217 -0.036409266
0000d0 18 59 62 bd ac 0c ad 3d 33 75 8e bd f2 be 0c bd
       -0.055260748 0.084496826 -0.06955948 -0.034361787
0000e0 32 df 97 3d e2 3d 9c bd 58 83 32 3e 3c 17 bb bd
       0.07415618 -0.07628991 0.17432916 -0.09135291
0000f0 38 3e 0d 3e 52 0c 87 3d e5 ed 99 bd a3 ea 99 bd
       0.13793266 0.06594147 -0.07516078 -0.075154565
000100 17 e1 9f 3c 04 4f ff bc 44 d4 38 3d 20 dd df 3d
       0.01951651 -0.031165607 0.045124307 0.10930848
000110 af df ea 3d 63 2f 8d 3d d4 d5 90 bd b8 33 ce 3d
       0.114684455 0.06893804 -0.070720345 0.10068458
000120 d2 cd 87 3d a4 51 63 bd 98 b4 7b 3d 1a af 53 bd
       0.06631054 -0.05549778 0.061451524 -0.05168066
000130 b0 3c 96 bd a5 c9 27 3d 10 70 6b 3d 56 48 ac bd
       -0.07335794 0.040963788 0.057479918 -0.084122345
000140 55 fc 3c bb 88 28 60 3c 1c 5d cc bc ad 46 f5 3d
       -0.0028836925 0.013681538 -0.024946742 0.11976371
000150 78 31 33 bd ff 8c e9 3d 5b ea 55 bd 88 1d e7 bc
       -0.04374835 0.11403846 -0.052225452 -0.028212324
000160 30 f6 f5 3c 68 97 8d 3c da cc c1 3d 04 36 87 bd
       0.030024618 0.01728411 0.094629005 -0.066020995
000170 5a 9e 6f 3d 24 3b c5 bd c0 18 72 bc d2 1d 55 bd
       0.058500625 -0.09630421 -0.014776409 -0.052030392
000180 84 ef 19 3d 2b 72 36 bd 80 a8 1a 3d 81 0b 6c 3d
       0.037581936 -0.044542473 0.03775835 0.05762816
000190 3b b0 c8 bb 8a f2 ca 3d 92 eb dd 3c e4 fe 89 3d
       -0.006124524 0.09909542 0.027089868 0.0673807
0001a0 a7 73 0d 3e d8 eb a2 3c 40 a3 ae 3c 70 99 fa bb
       0.13813649 0.01988785 0.021318078 -0.0076476857
0001b0 f8 0e ce 3d 94 23 77 3c c0 d4 95 3c e6 bc d1 3d
       0.10061449 0.015084166 0.018289924 0.10241108
0001c0 34 6f 9e bd 67 d3 93 bd 7d b1 a4 bd 09 a2 43 3c
       -0.07736054 -0.07218056 -0.08041666 0.011940488
0001d0 14 9a ef 3d 5c 1e 81 bc 78 65 27 bc 4e 21 99 3c
       0.1169931 -0.015761547 -0.010217063 0.018692639
0001e0 a8 99 3f 3c d1 0c cc 3d a3 17 5b bd e3 19 cd bd
       0.011694349 0.09963382 -0.05348934 -0.10014703
0001f0 da 85 86 3c 1a 5c b5 bd 49 fe 40 3c 2c 7d cb bc
       0.016421247 -0.088554576 0.011779376 -0.02483996
000200 a1 e6 bf 3d 10 80 cf 3c e2 69 cc 3d 08 9f 9c 3c
       0.09370161 0.02532962 0.09981133 0.0191188
000210 20 4a b9 bc 11 ea 38 be e8 c8 cb 3c 0b 28 ee bc
       -0.022618353 -0.18058039 0.024876073 -0.029071828
000220 b0 e8 5e bc 40 3c 38 bb 41 48 00 be e8 6d 3c bc
       -0.013605282 -0.0028112084 -0.12527563 -0.011500813
000230 27 2b a0 bd e0 66 70 3d e7 31 eb bc 91 52 11 3e
       -0.07820731 0.05869186 -0.028710319 0.14191653
000240 e2 b3 4e 3d 28 eb cd bc a0 97 5d 3c 94 f0 01 3d
       0.05046452 -0.025136545 0.01352492 0.031723574
000250 66 e5 63 bd 80 72 05 3e 88 e3 9f 3d e8 5b 1a bc
       -0.055638693 0.1303196 0.0780707 -0.009421326
000260 ec f4 6d 3d 5c 93 b8 3d e8 6f 40 bc 32 25 5c 3d
       0.058094904 0.090124816 -0.0117454305 0.05374641
000270 34 29 8d 3d a0 67 00 bd cc be a4 bd 1d 99 a0 bd
       0.068926245 -0.031348825 -0.08044204 -0.07841704
000280 00 ee d4 39 66 4f a3 bd 12 ca a4 3d 45 b0 4c bd
       0.00040613115 -0.079741284 0.08046354 -0.04997279
000290 12 6d c0 3d fb 2a a7 bd 62 7a 36 bd 06 4a 9d 3d
       0.093958035 -0.08162495 -0.044550307 0.076801345
0002a0 28 3e 5d bc 9e 97 8f 3d 4c 09 48 3d 34 d3 88 3d
       -0.013503589 0.070113406 0.04883699 0.06680909
0002b0 d4 01 3c bd a4 00 70 3d 0e df c0 bd 13 ea 9d bd
       -0.04590018 0.05859436 -0.09417544 -0.07710662
0002c0 a4 1b f6 bc a8 9b 45 bd 18 2e a6 3d 46 72 a7 bd
       -0.030042477 -0.04824415 0.081142604 -0.08176093
0002d0 8a 40 75 bd 80 4c d6 3b d4 c6 e1 bd ca 29 e3 bd
       -0.059876002 0.006539881 -0.110242516 -0.11091955
0002e0 1c 0b 87 3d 38 3f 43 bc 27 31 d7 bd 10 ad ca bd
       0.06593916 -0.011916928 -0.10507422 -0.0989629
0002f0 fa 28 e2 3d 40 54 43 bd 18 9f 8c 3d 01 e7 67 bd
       0.11042972 -0.04768777 0.06866282 -0.056616787
000300 4c 5b c5 bd 3c 01 31 bd bc 31 76 3d 37 02 8d bd
       -0.09636554 -0.043214068 0.060106024 -0.06885188
000310 14 b5 71 3d 80 12 59 3b aa d9 b4 3d 50 4b a1 3c
       0.05901058 0.00331226 0.088305786 0.019689232
000320 a8 29 3c 3c 10 3e 93 bb 2e e8 88 bd 56 2a bb bd
       0.011484541 -0.0044934824 -0.0668491 -0.09138934
000330 fa 6c 96 3d 16 84 92 3d a4 49 6b 3d d0 7c c1 3d
       0.073450044 0.071541 0.057443276 0.09447634
000340 68 cc 2a bd 42 86 88 3d 6e 03 84 bd a8 c1 56 3d
       -0.041698843 0.06666233 -0.06445967 0.05243078
000350 7c 55 28 3d b8 19 b3 bd 78 a0 0a 3d f0 62 8f bb
       0.04109715 -0.0874514 0.03384444 -0.004375808
000360 ae 73 a1 3d 54 b4 4c 3d 50 41 3b 3c 70 f1 e4 3d
       0.07883392 0.04997666 0.011429146 0.11178863
000370 a4 e8 52 bd 90 fc 0d 3d 72 a8 c0 bd 60 f1 8b 3b
       -0.051491395 0.03466469 -0.094071284 0.0042707175
000380 40 e0 1b 3b fe 04 92 3d 23 1b ba bd aa a7 3f bd
       0.0023784786 0.071298584 -0.09087207 -0.046790756
000390 c3 39 b4 bd 47 71 82 bd 4e 05 90 3d b0 8a d4 bc
       -0.0880008 -0.06369262 0.07032262 -0.025945038
0003a0 15 8d ce bd 8e e3 b2 3d 18 95 e3 3d 10 6f 5e 3d
       -0.10085503 0.08734809 0.11112422 0.054305136
0003b0 7c 28 21 bd 44 f2 04 3d 88 78 81 3c ba a9 05 bd
       -0.03934525 0.032457605 0.015804544 -0.032632567
0003c0 98 18 91 3d 8d 58 cc 3d cc f9 15 3d 20 24 3e bc
       0.07084769 0.09977827 0.036615178 -0.011605293
0003d0 5e d3 c9 3d 19 49 b2 3c 3a 07 70 bd 8a a3 87 bd
       0.09854768 0.021763371 -0.05860064 -0.066229895
0003e0 14 68 b8 3d da 0b 2f bd 31 85 f6 3d 5a 02 8f bd
       0.09004226 -0.042735912 0.12037123 -0.069828704
0003f0 43 ff 4c 37 7e 92 c4 bd 52 78 85 bd dd cf 8c ba
       1.221878e-05 -0.09598254 -0.0651709 -0.00107431

h3.bias f4 [50]
000000 61 38 a8 3d 13 3a 69 3c a2 df 4d bd 62 50 3f bc
       0.082138784 0.014235037 -0.0502621 -0.01167688
000010 3d 35 98 3d 15 2f 55 3d 27 25 c8 bc 9b 64 5b 3d
       0.074320294 0.052046854 -0.024431778 0.05356274
000020 bc 79 36 3d f4 70 03 bd 76 1e 4f bd 4e cf ba 3c
       0.04454969 -0.032090142 -0.05056616 0.022803929
000030 10 3f e1 3c 47 13 f3 3d 9b b9 c1 bc 30 52 87 3c
       0.02749589 0.11868911 -0.023648074 0.016518682
000040 75 2c bb 3c c8 4a 77 3d 0e 29 94 3d 6e a4 9f bd
       0.022848347 0.06037405 0.07234393 -0.07795034
000050 1e 95 d9 3d f6 14 f6 3c 53 40 e5 3d 08 80 b0 bd
       0.10624145 0.030039292 0.111939095 -0.0861817
000060 c7 ef ce 3d 5e 4c a5 3d b3 62 2f bd 22 4c d3 bd
       0.10104328 0.080712065 -0.042818736 -0.103172556
000070 32 ac 6f 3c ab 37 9c 3d 74 f0 69 bd f1 95 38 3d
       0.014628457 0.07627805 -0.05711408 0.04506487
000080 59 a0 13 3d 50 15 d7 3d 89 f8 fe 3d 15 7e 62 3d
       0.03604159 0.10502112 0.12449748 0.055296022
000090 20 ca 9f bc e5 ad fb bc 6c 13 ac 3d 25 82 85 bd
       -0.01950556 -0.030722568 0.08402142 -0.06518964
0000a0 b4 c9 03 bd f0 54 75 bd 4d e3 cc bd e6 d5 d8 3d
       -0.03217478 -0.059895456 -0.10004292 0.10587673
0000b0 5b ec 9d 3d f1 8c 46 3d e2 4a b3 3d 4c ef af 3d
       0.07711097 0.048474256 0.08754517 0.08590564
0000c0 eb 3b a1 3d b9 33 95 bd
       0.078727566 -0.07285256

output.weight f4 [2, 50]
000000 1c 60 cd 3d e1 3e 3e 3c f7 f9 0a 3e 9c e6 61 3e
       0.10028097 0.011611671 0.13571917 0.22060627
000010 70 1e 28 3d 85 e1 95 bd f2 02 46 3e 9d ce 21 be
       0.041044652 -0.07318405 0.19337061 -0.15801473
000020 bd f7 10 bd 98 17 2c 3d a0 83 24 3d 04 cf d5 bd
       -0.03539251 0.04201469 0.04016459 -0.10439876
000030 fc 31 a9 bd 41 38 50 3d 01 c3 bc bc 94 a8 e9 bd
       -0.08261487 0.050834898 -0.023042204 -0.11409107
000040 89 9f a9 3d 00 dc 14 3e c4 2a bf bc 3a af 92 3d
       0.08282382 0.14537048 -0.023335822 0.07162328
000050 df 53 54 3d c2 21 df 3d 57 a8 05 bc f0 88 2f 3d
       0.0518378 0.10895111 -0.008157811 0.042855203
000060 6b 5a cc 3d e9 48 38 bd 98 52 2a 3e 2c 27 22 3d
       0.09978183 -0.044991408 0.1663307 0.03958814
000070 01 c2 e6 bd 84 35 f6 3d fa c4 62 bd c9 ce 0c be
       -0.11267472 0.12021926 -0.055363633 -0.13750757
000080 89 03 8f bd 61 6d 5b be 15 77 24 bd fe 9e 9a bd
       -0.06983096 -0.21428443 -0.040152628 -0.075498566
000090 82 80 d0 bd 4b 6d 1b 3e 8a 9f c7 3d 32 3c 8c 3d
       -0.10180761 0.1517841 0.097472265 0.06847419
0000a0 83 9c 37 3e d2 27 54 bc 51 f6 16 3e 13 5f 0a 3e
       0.17930798 -0.012948947 0.147424 0.1351283
0000b0 af 3e 0f 3e 20 d6 73 3d 03 2b b3 3d dc 1d 1b 3e
       0.13988756 0.059530377 0.08748438 0.15148109
0000c0 2f fb 0d 3e 9a ed e6 bd b3 16 20 3e 54 5d d0 bd
       0.1386535 -0.11275788 0.15633659 -0.10174051
0000d0 58 d9 bb 3d 2e b0 34 be e8 62 23 3e 17 ba 1c 3e
       0.091723144 -0.17645332 0.15955698 0.15305363
0000e0 1e 2c 8c bd d3 7d 2b 3e 73 1d 9d 3d e8 15 bf bd
       -0.06844352 0.16747217 0.076716326 -0.0933035
0000f0 51 0e d7 3d dd 5f b1 bd b8 89 97 bd 14 2f 29 3e
       0.105007775 -0.086608626 -0.07399315 0.16521865
000100 de 4b 0a 3c b8 70 9d bd 74 a4 09 be 4b 8e b0 3c
       0.00844094 -0.07687515 -0.1344164 0.021552226
000110 7c 9a 6d 3d 24 a1 c9 bc 9f 0d 59 3d 60 9e 15 3e
       0.058008656 -0.02461297 0.052991506 0.14611197
000120 14 9a 4e be 54 89 06 3d ad 97 c1 3c 2c 65 fd bd
       -0.20175964 0.03284581 0.023631895 -0.12372813
000130 6c c7 2c be 40 77 d6 bb 51 7d 09 be 58 fc 38 3e
       -0.16872948 -0.0065449774 -0.1342671 0.18065012
000140 62 2c f8 bd 9f 88 4f bb a4 56 59 3c 47 3c 94 bd
       -0.1211784 -0.0031667126 0.013265286 -0.072380595
000150 32 c7 34 3e e8 33 3d bd 5c 04 5e bd c6 7a 1a 3e
       0.17654112 -0.04619208 -0.054203376 0.15085897
000160 49 35 9c 3d 5f f2 13 bd 2a 96 3c be c2 16 9f bd
       0.07627351 -0.036119815 -0.18416658 -0.077680126
000170 e6 79 94 bd fb 25 f4 bc 63 69 dc 3d 6f 9e ad 3c
       -0.07249813 -0.029803267 0.107622884 0.021193711
000180 8c 1d 77 3d eb 4d 12 3e e1 51 dc 3c 45 8f 08 3e
       0.060330912 0.14287536 0.026894512 0.13335903

output.bias f4 [2]
000000 b3 18 74 3d 6e e7 bd bd
       0.059593868 -0.09272657
