train/exp/weight2.pth (torch, 56519 bytes, 10 tensors)

input.weight f4 [10, 4]
0	0x3eac9a0a	0.33711272
1	0xbe344f85	-0.1760846
2	0xbc9fdf25	-0.019515583
3	0x3eb002cb	0.3437713
4	0xbed94442	-0.4243489
5	0x3ebe38f0	0.37152815
6	0xbd3db396	-0.046313845
7	0x3eaa9c4b	0.33322367
8	0x3e14b1fe	0.14521024
9	0x3cd697d2	0.02619544
10	0x3df9ac3b	0.121910535
11	0x3d70d784	0.05879928
12	0x3e8c9d3b	0.27463707
13	0xbd94bba3	-0.07262351
14	0xbdb168ef	-0.086625926
15	0xbcd1eded	-0.025626147
16	0x3d946c30	0.07247198
17	0xbb02e700	-0.0019974113
18	0x3edfc964	0.43708336
19	0x3e1f5450	0.15559506
20	0xbdd66833	-0.10469093
21	0xbe89eb89	-0.26937512
22	0x3db603d7	0.08887451
23	0xbd73e093	-0.059540343
24	0xbe2411d4	-0.16022426
25	0x3cc41f80	0.023940802
26	0x3e989bd4	0.29806387
27	0x3e8b2538	0.27176833
28	0xbee105d1	-0.4394975
29	0x3edb70d4	0.4285952
30	0x3dabe004	0.08392337
31	0x3ed48266	0.41505736
32	0x3ea8f9ae	0.3300299
33	0xbee94052	-0.45556885
34	0xbef3682e	-0.4754042
35	0xbe76f43c	-0.24116606
36	0x3f053fe2	0.520506
37	0x3d3596ae	0.044333152
38	0x3e2ef6c1	0.17086317
39	0xbe657fa1	-0.22411968

input.bias f4 [10]
0	0x3f016832	0.50549614
1	0xbe15ba5e	-0.14621875
2	0x3ed2fcc3	0.41208467
3	0x3d148c6d	0.036266733
4	0xbe86dd82	-0.26340872
5	0x3eb53423	0.3539134
6	0xbe87e3d4	-0.26541007
7	0x3e351ff8	0.17687976
8	0xbe13d7fc	-0.1443786
9	0xbc7b8595	-0.015351673

h1.weight f4 [100, 10]
0	0xbe9ba832	-0.3040176
1	0xbe1a63e0	-0.15077162
2	0x3e2fb6d8	0.17159593
3	0xbd9d6cdc	-0.07686779
4	0x3ea144dd	0.3149785
5	0x3e81c8b9	0.25348452
6	0xbc7298c0	-0.014806926
7	0xbe58247c	-0.21107668
8	0x3e453146	0.19257078
9	0x3dc8ff78	0.09814352
10	0xbe515265	-0.20441587
11	0x3e52556e	0.20540401
12	0x3e44970a	0.19198242
13	0x3e8f988f	0.2804608
14	0xbe3584d4	-0.17726451
15	0xbd553580	-0.052052975
16	0xbbc8bc00	-0.006125927
17	0x3d3d2f08	0.04618743
18	0xbe75c036	-0.23999104
19	0xbe65c9b8	-0.22440231
20	0x3e2860d1	0.16443183
21	0x3cad4c62	0.021154586
22	0x3e2b670c	0.16738528
23	0xbd255009	-0.04035953
24	0x3dd4a5bc	0.10383174
25	0xbc9924c7	-0.018694295
26	0x3deb7ac0	0.11498022
27	0x3e69037d	0.22755237
28	0xbe95f20e	-0.29286236
29	0x3e2d1c0e	0.16905233
30	0xbe2ab58c	-0.16670817
31	0xbe233f41	-0.15942098
32	0x3dacac7d	0.08431337
33	0xbda19c8a	-0.078911856
34	0x3e3e2f86	0.18572816
35	0xbe32696d	-0.17423029
36	0xbe8fef10	-0.28112078
37	0x3e97c9b8	0.29646087
38	0xbd401098	-0.046890825
39	0x3e523ca0	0.20530939
40	0x3dfdfe9a	0.12402077
41	0xbe960f11	-0.2930837
42	0x3d9fcd94	0.07802883
43	0x3e0150c0	0.1262846
44	0xbe58d08c	-0.21173304
45	0xbe8161e1	-0.25269988
46	0x3ddcd3dc	0.107825965
47	0x3d2856ca	0.041098393
48	0xbe09be34	-0.13451463
49	0xbc994d96	-0.018713754
50	0x3ea00fc1	0.3126202
51	0xbdb9be1a	-0.09069462
52	0x3e4e8ad5	0.20170148
53	0x3e2c90ce	0.16852114
54	0xbe515159	-0.20441188
55	0xbebd5e12	-0.36985832
56	0x3e9b6a0d	0.30354348
57	0x3d0e5e1a	0.03475771
58	0x3e5df68e	0.21676084
59	0x3e19e3b9	0.15028276
60	0x3dd44ee2	0.10366608
61	0x3e9ac777	0.30230305
62	0x3ea1a5d6	0.31571835
63	0xbe72bd0e	-0.23704931
64	0x3d21f238	0.03953764
65	0x3e1e488c	0.15457362
66	0x3e6a95a6	0.22908649
67	0x3e80c69b	0.25151524
68	0xbe6a5a47	-0.22886
69	0xbe3c406f	-0.18383954
70	0xbe43d5e2	-0.19124559
71	0x3d22b8f8	0.03972718
72	0x3ea15e5f	0.31517312
73	0xbe4c8c26	-0.19975337
74	0x3e2c8e58	0.16851175
75	0xbe333a9f	-0.17502831
76	0xbe983aa1	-0.2973223
77	0xbd89a5e4	-0.06721094
78	0x3e3a92f6	0.18220124
79	0x3e964fd9	0.29357794
80	0xbe491a62	-0.1963897
81	0x3d8c8b40	0.06862497
82	0x3e8bb45b	0.27286038
83	0x3e569422	0.20954946
84	0x3e49cf76	0.19708046
85	0x3e661d76	0.22472176
86	0x3e4cd1da	0.20001927
87	0x3da74818	0.08168048
88	0xbe5d6ec8	-0.21624291
89	0xbe87f6d2	-0.26555496
90	0xbe28dbc1	-0.1649008
91	0xbd78d3b2	-0.060748763
92	0xbe53bad5	-0.2067674
93	0x3dd38ba2	0.10329367
94	0x3dc86f5c	0.09786865
95	0xbe414aa1	-0.18876125
96	0x3df8e98c	0.121539205
97	0x3dc225aa	0.0947984
98	0x3e45b3fa	0.19306937
99	0x3e8c870d	0.27446786
100	0xbda9bee2	-0.08288361
101	0x3ece9083	0.4034463
102	0x3b2d596e	0.002645101
103	0xbcc0536c	-0.023477279
104	0xbe98d283	-0.29848108
105	0xbe942f9f	-0.28942582
106	0xbe3d2cd7	-0.18474136
107	0xbd7e66a4	-0.062109604
108	0x3e663966	0.22482833
109	0xbd072dce	-0.033002667
110	0xbe5d4744	-0.21609217
111	0x3e3c2e0b	0.18376939
112	0x3e071fb6	0.1319569
113	0x3e5e3a97	0.21702038
114	0xbe2790ff	-0.16363905
115	0xbc6f23cf	-0.01459594
116	0xbdebc590	-0.115122914
117	0xbcb47ded	-0.022032702
118	0xbe810728	-0.25200772
119	0xbd8ffc85	-0.07030586
120	0xbdc657d2	-0.09684719
121	0x3e0a79c6	0.13523015
122	0x3d6ca1c8	0.057771474
123	0x3d9ff9f4	0.07811347
124	0x3ea19a11	0.31562856
125	0x3e9dccf3	0.30820426
126	0x3e5cdbce	0.21568224
127	0x3c24fbe0	0.010069817
128	0xbe600394	-0.21876365
129	0x3e7d10fa	0.24713507
130	0xbda1f31e	-0.07907699
131	0xbcd16ed0	-0.025565535
132	0xbe8b7bee	-0.27242988
133	0xbd7fda48	-0.06246403
134	0xbe50dbb1	-0.20396306
135	0x3e94c75f	0.29058358
136	0xbe8bf931	-0.27338555
137	0xbe7c68f2	-0.24649408
138	0xbc2fee20	-0.010737926
139	0xbe2f17ce	-0.17098925
140	0x3de7bb30	0.11315
141	0xbdf94a84	-0.12172416
142	0xbe1817ca	-0.14852825
143	0x3c92b8d0	0.017910391
144	0x3e6a691e	0.22891662
145	0xbe63c7de	-0.22244212
146	0x3e18110e	0.14850256
147	0x3e50089a	0.20315781
148	0x3e9e60e9	0.30933312
149	0xbe62a652	-0.22133759
150	0x3ddbf351	0.10739768
151	0xbea265b6	-0.31718224
152	0x3e8e8f1d	0.27843562
153	0xbd1619ac	-0.036645576
154	0x3e430d5e	0.19048068
155	0xbb90a261	-0.0044138883
156	0xbcc9c210	-0.024628669
157	0xbd9d21e0	-0.07672477
158	0x3d5c3048	0.053756982
159	0x3e5e88ae	0.21731827
160	0x3dec980c	0.11552438
161	0x3dafa641	0.08576632
162	0xbe685601	-0.22689058
163	0x3e994b88	0.29940438
164	0x3e8d298b	0.27570757
165	0x3ea63ddf	0.3246908
166	0x3e6f5f7e	0.23376271
167	0xbe46a026	-0.1939703
168	0xbdf013fe	-0.11722563
169	0x3ea55f59	0.32299307
170	0xbe76a35e	-0.24085757
171	0x3e92e30d	0.2868885
172	0xbe7eae54	-0.24871188
173	0xbe641980	-0.22275352
174	0x3e1e4ea0	0.1545968
175	0xbe68a8bd	-0.22720619
176	0xbd945f9e	-0.072448
177	0x3e6b930a	0.2300531
178	0x3e803efb	0.2504805
179	0x3e992041	0.2990742
180	0xbd836a94	-0.064168125
181	0xbe7bb0c0	-0.24579144
182	0x3e9f6abf	0.31136128
183	0xbd89f68c	-0.06736478
184	0xbe053ad3	-0.13010721
185	0x3d9de058	0.07708806
186	0xbe62740c	-0.22114581
187	0x3e54d6b2	0.20785025
188	0x3e4af266	0.1981903
189	0xbe8078b1	-0.2509208
190	0xbe84fcbe	-0.25974077
191	0xbce2ec00	-0.027700424
192	0x3e0802f0	0.1328237
193	0xbc160e20	-0.009158641
194	0xbe243351	-0.160352
195	0x3bece780	0.0072297454
196	0xbe982ee1	-0.29723266
197	0xbe64dc84	-0.22349745
198	0xbe578fca	-0.21050945
199	0x3e85562f	0.26042315
200	0x3e92164e	0.28532642
201	0xbd3adbdf	-0.04561984
202	0x3cfdef85	0.030998
203	0x3e079cb3	0.1324337
204	0x3d1b3218	0.03788957
205	0xbe832b25	-0.25618854
206	0x3e3ac200	0.18238068
207	0x3e71adac	0.23601407
208	0xbc9622d0	-0.018327147
209	0x3cff0681	0.031131031
210	0x3ea6d0e0	0.32581234
211	0x3e46b1c3	0.19403748
212	0xbe2818f8	-0.16415775
213	0x3ecc550b	0.39908633
214	0x3da04590	0.07825768
215	0xbe39e35c	-0.18153137
216	0x3e3142f8	0.17310703
217	0xbe9a979e	-0.301938
218	0x3e95978d	0.29217187
219	0xbe11f9d0	-0.14255452
220	0x3db72b4c	0.08943805
221	0x3dc53470	0.09629142
222	0x3d9a0b84	0.07521728
223	0x3e864a65	0.26228634
224	0xbe067f50	-0.13134503
225	0xbe08b4bd	-0.13350196
226	0xbe8c4e2d	-0.27403393
227	0xbc54a140	-0.012977898
228	0xbe19661d	-0.1498036
229	0x3c4f9a00	0.012670994
230	0xbda36bc7	-0.07979541
231	0x3e174db5	0.14775737
232	0x3e8b6365	0.2722427
233	0x3d7bf655	0.061514217
234	0xbdd0a10e	-0.10186969
235	0xbe835e8c	-0.2565807
236	0xbe8d3587	-0.275799
237	0x3e98f0db	0.29871258
238	0xbd756038	-0.059906214
239	0x3dda8956	0.10670726
240	0x3c3fa760	0.01169762
241	0xbe4e5baa	-0.20152155
242	0x3e365e2a	0.17809358
243	0x3e357926	0.17721996
244	0x3c8275a0	0.015925229
245	0xbe380591	-0.17970873
246	0xbe099793	-0.13436727
247	0x3b8eb2c0	0.0043548048
248	0xbe390243	-0.18067269
249	0xbe34ad2f	-0.1764419
250	0xbd413620	-0.04717076
251	0xbdba7c92	-0.09105791
252	0x3d9efb58	0.07762784
253	0xbdaa3a52	-0.08311905
254	0xbd2bb470	-0.041920125
255	0xbdf730ac	-0.1206983

h1.bias f4 [100]
0	0xbe00ca01	-0.12577058
1	0xbe94d36a	-0.29067546
2	0x3e9cf57b	0.30656037
3	0x3da9974a	0.08280809
4	0x3e176771	0.14785554
5	0x3cc7a421	0.024370255
6	0x3ddb852f	0.10718762
7	0xbe478384	-0.19483763
8	0xbe7bb972	-0.2458246
9	0x3e62be50	0.22142911
10	0x3e22a467	0.15883027
11	0x3e3c6a66	0.18399963
12	0xbea0b40d	-0.31387368
13	0x3caf2420	0.02137953
14	0xbe970557	-0.2949626
15	0xbd380adf	-0.044932242
16	0x3d1b9383	0.037982475
17	0xbe63cfda	-0.22247258
18	0xbea05374	-0.3131367
19	0x3b086680	0.0020813048
20	0x3e981e2f	0.29710528
21	0x3e92a963	0.28644857
22	0xbe452598	-0.19252622
23	0xbd713c6d	-0.058895517
24	0xbe87651f	-0.26444337
25	0xbe7ce2e4	-0.24695927
26	0xbdb19292	-0.08670534
27	0x3ea76450	0.3269372
28	0xbd9ecd91	-0.077540524
29	0x3c95e230	0.018296331
30	0x3ea1e2c3	0.31618318
31	0x3d9f586d	0.07780538
32	0x3e89abae	0.26888794
33	0x3e60420d	0.21900196
34	0x3e99ed05	0.30063644
35	0x3d5e2030	0.054229915
36	0xbe724fbd	-0.2366323
37	0xbe8b48b6	-0.27203912
38	0xbe274f25	-0.16338785
39	0x3eaa7668	0.33293462
40	0x3e4de9cc	0.20108718
41	0x3e04524a	0.12922016
42	0xbe7698a3	-0.24081664
43	0xbe3eead5	-0.18644269
44	0x3e8d9f38	0.27660537
45	0xbd067428	-0.03282562
46	0xbea1352a	-0.31485873
47	0xbd201fa8	-0.03909269
48	0xbd5addaf	-0.05343407
49	0xb9aae366	-0.00032594352
50	0x3e0a88fc	0.13528818
51	0x3df8c8e1	0.121476896
52	0xbe77c72e	-0.24197075
53	0x3c13e0c3	0.009025755
54	0xbdd444a2	-0.10364653
55	0x3e6867e0	0.22695875
56	0x3e28e303	0.16492848
57	0x3e465062	0.19366601
58	0x3e978256	0.29591626
59	0x3e3949c2	0.18094543
60	0xbea1cb41	-0.31600383
61	0x3da36ae4	0.07979372
62	0xbe5e32dd	-0.2169909
63	0x3da066a2	0.07832076
64	0x3d9f54c5	0.077798404
65	0x3eab0731	0.33403924
66	0xbe5d3d3e	-0.21605393
67	0xbe9ea1bd	-0.30982772
68	0xbd5e1f4d	-0.05422907
69	0x3dd7fbff	0.10546111
70	0x3e7a0f86	0.24419984
71	0x3e8db5ae	0.27677673
72	0x3e787f7f	0.24267386
73	0x3e1ff366	0.15620193
74	0xbdb914ce	-0.09037171
75	0xbd4f26c1	-0.050574068
76	0xbe0bc652	-0.13649872
77	0x3d9aca47	0.075581126
78	0xbe613217	-0.21991764
79	0x3dfd4494	0.12366596
80	0x3e511fe6	0.20422325
81	0x3e8518f2	0.25995594
82	0xbe9f9652	-0.31169373
83	0x3e8e4a1f	0.27790925
84	0xbe3dae03	-0.18523411
85	0xbcd38460	-0.025819957
86	0x3ea39a52	0.31953675
87	0x3e3a35a5	0.18184526
88	0xbde90338	-0.11377567
89	0x3e37df60	0.17956305
90	0xbe9d7a6f	-0.30757472
91	0x3e88e16e	0.2673449
92	0x3ea0e9e8	0.31428456
93	0x3c623001	0.01380539
94	0x3d2cc302	0.04217816
95	0xbd97f796	-0.0742027
96	0xbe1e2f14	-0.15447646
97	0xbe127776	-0.14303383
98	0xbd25a96c	-0.040444776
99	0xbe8475b4	-0.2587105

h2.weight f4 [80, 100]
0	0xbda585b3	-0.08082142
1	0x3c33cf50	0.01097472
2	0xbd22a919	-0.039712045
3	0x3ca5ef92	0.020255838
4	0x3d019d49	0.03164414
5	0xbb6a4796	-0.0035748235
6	0x3dc85cbe	0.09783314
7	0xbd13dd8a	-0.036099948
8	0xbd63bffd	-0.055603016
9	0x3d16e48b	0.03683905
10	0xbb19492e	-0.0023389566
11	0x3d500011	0.050781313
12	0x3daff697	0.08591955
13	0xbd6c3893	-0.05767114
14	0xbd184430	-0.037174404
15	0x3e12edf3	0.14348583
16	0xbdb1c142	-0.08679439
17	0x3cdddf2c	0.027083956
18	0xbda6dd28	-0.08147651
19	0xbdb64805	-0.089004554
20	0x3ce58520	0.02801758
21	0xbd0d141c	-0.034443006
22	0x3d5dd562	0.054158576
23	0x3d4010bd	0.046890963
24	0x3a812480	0.0009852797
25	0xbd55d7e3	-0.05220784
26	0x3d2851a6	0.04109349
27	0x3deddfac	0.11614928
28	0x3d4070e0	0.046982646
29	0xbd7ccf37	-0.061721053
30	0xbdad027d	-0.0844774
31	0x3d9b912e	0.0759605
32	0x3d7678b2	0.060173698
33	0x3d52ba4a	0.05144719
34	0x3d3f4716	0.046698652
35	0x3d4d87f6	0.05017849
36	0xbca7339c	-0.020410351
37	0x3d47ff6e	0.04882758
38	0x3d8015cb	0.06254157
39	0xbd3d862a	-0.046270527
40	0x3dc2da5c	0.09514305
41	0x3d9b8b36	0.07594912
42	0xbb489e40	-0.0030611902
43	0x3be4b3b2	0.006979429
44	0x3cf6c535	0.030123333
45	0x3d9f8029	0.077881165
46	0x3d81bc85	0.06334785
47	0xbd25fadd	-0.040522445
48	0x3da7e207	0.08197408
49	0x3d9df26c	0.07712254
50	0x3d3ea5ff	0.046545025
51	0x3dc304d9	0.09522409
52	0x3d46e57e	0.048558705
53	0x3dc60ff0	0.096710086
54	0x3d29e373	0.041476678
55	0xbd695293	-0.056963515
56	0xbc927787	-0.01787926
57	0x3d11783a	0.035515048
58	0xbd4fdec0	-0.05074954
59	0xbd9dce54	-0.077053696
60	0x3d8a3211	0.06747831
61	0x3d0b4eb2	0.034010597
62	0xbda54440	-0.08069658
63	0x3d9e55ee	0.077312335
64	0x3e2c32b0	0.16816211
65	0x3d83dfdf	0.064391844
66	0x3dbb066f	0.091320865
67	0xbd21f503	-0.039540302
68	0x3b93dbd4	0.0045122895
69	0xbdf77520	-0.12082887
70	0xbabe2ac4	-0.0014508595
71	0xbd2161a1	-0.039399747
72	0xbc9ba325	-0.018998692
73	0x3e2ac62b	0.16677158
74	0x3d4c3222	0.049852498
75	0xbcb02513	-0.021502053
76	0xbd99b642	-0.07505466
77	0x3ca7f759	0.020503687
78	0xbd1bd2a3	-0.038042676
79	0x3cdd51fc	0.027016632
80	0x3d966261	0.07342983
81	0x3dadbd95	0.084834255
82	0x3daaf901	0.08348275
83	0xbc800927	-0.015629364
84	0x3e28a366	0.16468582
85	0xbcf8682c	-0.03032311
86	0xbc7d81f0	-0.015472874
87	0x3d380e0d	0.044935275
88	0xbc0d3303	-0.008618119
89	0xbb8df85f	-0.0043325867
90	0x3c601068	0.013675787
91	0xbdd23765	-0.10264472
92	0x3dacd82c	0.08439669
93	0xbd87df39	-0.06634373
94	0xbd4e1363	-0.050311457
95	0xbd8f0b32	-0.06984557
96	0x3d2bb291	0.04191834
97	0x3d8cb51f	0.068704836
98	0xbe037391	-0.12837054
99	0xbd5f81cd	-0.054567147
100	0x3db74af1	0.08949841
101	0x3ceeb524	0.029139109
102	0x3dbe3c29	0.092888184
103	0xbc8dc50c	-0.017305873
104	0x3d983ea2	0.07433821
105	0x3dda6500	0.106637955
106	0xbc8d11c2	-0.017220382
107	0xbb96ffb0	-0.004608117
108	0x3d9555f5	0.07291786
109	0x3db27c49	0.08715112
110	0x3ddabcf0	0.10680568
111	0x3b192ee1	0.002337389
112	0xbd2b00ad	-0.04174869
113	0xbd7ab52d	-0.06120794
114	0x3dcc5fef	0.099792354
115	0x3d14effb	0.036361676
116	0x3d96dce8	0.07366353
117	0x3da7912b	0.081819855
118	0xbd562f2d	-0.052291084
119	0x3bdebaa0	0.00679715
120	0x3993d4f0	0.00028196676
121	0x3c906bf0	0.017629594
122	0x3d86f9c3	0.06590607
123	0x3e00fbcf	0.12596057
124	0xbd68a603	-0.056798946
125	0xbd4aacaa	-0.04948107
126	0xbd917d95	-0.07104031
127	0xbd784aa0	-0.060618043
128	0x3dec3b70	0.11534774
129	0xbd7d1970	-0.061791837
130	0x3c68ad9d	0.014201549
131	0x3b1f2adc	0.002428702
132	0x3d1ab917	0.03777417
133	0x3baaf337	0.0052169817
134	0x3da3562b	0.079754196
135	0x3c6101e8	0.013733365
136	0x3c8cc86e	0.017185416
137	0x3cb0d4f4	0.021585919
138	0xbaa37b40	-0.0012472644
139	0xbd22cd2a	-0.03974644
140	0x3d9ae627	0.07563429
141	0x3ce1687f	0.027515648
142	0x3d9046ed	0.07044778
143	0x3d02899b	0.031869512
144	0x3cb98448	0.022646084
145	0x3dac0fc3	0.08401444
146	0xbdc1598f	-0.0944091
147	0x3c237228	0.009975947
148	0x3e37fc19	0.17967261
149	0xbc86ca52	-0.016453896
150	0xbc0ac5fd	-0.008470056
151	0xbbc06d09	-0.005872373
152	0x3d06f106	0.0329447
153	0x3dc2431d	0.09485457
154	0x3d4feaa9	0.0507609
155	0x3d963046	0.07333426
156	0xbccbb7c5	-0.024867902
157	0x3d85bcea	0.06530173
158	0xbc63f746	-0.013913935
159	0x3d965d2f	0.07341992
160	0xbcf06c6c	-0.029348575
161	0xbdae6398	-0.0851509
162	0x3bea0530	0.0071417317
163	0x3df8c5ba	0.12147088
164	0x3dc11515	0.09427849
165	0x3c5d330a	0.013500938
166	0x39b9c600	0.0003543347
167	0x3d596372	0.053073354
168	0xbd0a35b4	-0.03374262
169	0xbdff6ee9	-0.12472326
170	0xbd776141	-0.060395483
171	0x3d00c30c	0.03143601
172	0xbbe98843	-0.0071268394
173	0x3e4aae7b	0.19793122
174	0xbcc09340	-0.023507714
175	0x3dd62323	0.104559205
176	0xbe0bc9a6	-0.13651142
177	0xbd7b61c0	-0.06137252
178	0xbc16b750	-0.009198979
179	0x3bf17156	0.007368247
180	0xbceee5f8	-0.029162392
181	0x3ccdfffb	0.025146475
182	0xbdb1a5dd	-0.08674214
183	0x3dd8886b	0.10572895
184	0x3ca9fea0	0.020751297
185	0x3d9d233f	0.07672738
186	0x3d2af469	0.041736994
187	0x3d3d18cb	0.046166223
188	0xbdb1272f	-0.08650052
189	0x3d59a97c	0.05314015
190	0xbd64d390	-0.055865824
191	0x3d642542	0.055699594
192	0xbd37ccf0	-0.044873178
193	0xbc2253fb	-0.009907718
194	0xbd8c81b1	-0.06860674
195	0xbd83b7f8	-0.06431574
196	0xbd9f3924	-0.077745706
197	0xbc226e98	-0.009914063
198	0xbcc20490	-0.023683816
199	0x3c8ac480	0.016939402
200	0x3d514e1e	0.05109989
201	0xbd274dfa	-0.04084585
202	0xbd7e2393	-0.062045645
203	0xbcac9ab8	-0.02106987
204	0x3dc0fee1	0.09423614
205	0xbc482af0	-0.012217268
206	0xbdac69d8	-0.084186256
207	0x3da0b2bd	0.078465916
208	0x3cc7534c	0.024331711
209	0x3c8e2de0	0.01735586
210	0x3c8c9d14	0.017164744
211	0x3d8ee361	0.06976963
212	0xbd3a8240	-0.045534372
213	0x3d9542f5	0.07288162
214	0x3dc4ef67	0.09615975
215	0xbcd33b8c	-0.02578523
216	0x3d814173	0.063113116
217	0x3d61fbd6	0.05517181
218	0x3dbfcaa9	0.09364826
219	0xbcbea908	-0.02327396
220	0xbd73a82a	-0.059486546
221	0xbd180b3c	-0.03712009
222	0xbd8b55d8	-0.06803483
223	0x3b60d560	0.003430687
224	0x3dc574c9	0.096414156
225	0x3dc6af1d	0.09701369
226	0x3d9ab251	0.075535424
227	0x3c221ed0	0.009895042
228	0x3b0e44c0	0.0021708459
229	0x3d879a31	0.066212066
230	0x3d7336c2	0.059378393
231	0xbc229668	-0.009923555
232	0xbccf3058	-0.025291607
233	0x3d21f5e2	0.039541133
234	0xbb6366c0	-0.0034698695
235	0xbd8fe13d	-0.07025383
236	0xbd40a880	-0.047035694
237	0x3da61731	0.08109892
238	0x3daa8eb9	0.083280034
239	0xbd1f9aed	-0.038966108
240	0xbcafcc8c	-0.02145984
241	0xbd4b01dd	-0.049562324
242	0xbd05b936	-0.032647334
243	0x3dbaafed	0.091155864
244	0xbdb62658	-0.08894032
245	0x3d43747e	0.047718517
246	0xbdb8125d	-0.089878775
247	0xbd436ad3	-0.047709297
248	0xbca6d188	-0.020363584
249	0x3be30ea0	0.0069292337
250	0xbc85094c	-0.016239785
251	0xbd3b3be3	-0.04571141
252	0xbd36b247	-0.044603612
253	0xbd792210	-0.0608235
254	0xbd8ef398	-0.069800556
255	0xbd7f308a	-0.06230215

h2.bias f4 [80]
0	0x3dc2a3b9	0.09503884
1	0xbd1fd277	-0.039019074
2	0xbc85de34	-0.016341306
3	0x3c3dc1a7	0.011581815
4	0xbd8e9148	-0.06961304
5	0xbbd2eb40	-0.0064367354
6	0xbd4b5cf9	-0.049649213
7	0x3cd74a28	0.026280478
8	0x3bf3fdd0	0.0074460283
9	0xbdb79208	-0.089634
10	0x3dba039c	0.0908272
11	0x3ba9df60	0.005184099
12	0x3dbb54d2	0.091470376
13	0x3c3121c0	0.010811269
14	0xbd2743e7	-0.04083624
15	0xbce092be	-0.027413722
16	0xbc4427c0	-0.011972368
17	0xbc074836	-0.0082569625
18	0x3ccb6d8c	0.02483251
19	0xbc235dc2	-0.009971084
20	0xbd5633e6	-0.052295588
21	0x3d0b18a2	0.03395904
22	0x3e008db9	0.12554063
23	0xbc616d98	-0.013759039
24	0x3d38ab18	0.045085043
25	0xbd8e4bbb	-0.06948038
26	0xbd8754ba	-0.06607957
27	0xbdcb1767	-0.09916573
28	0xbd4e4cdd	-0.05036627
29	0x3d8c5a54	0.06853166
30	0x3dbcfa60	0.09227443
31	0x3dca3b83	0.09874632
32	0x3cbf0a5c	0.02332037
33	0xbd5032c7	-0.050829675
34	0xbc45d47c	-0.012074586
35	0x3d3e9d7b	0.046536904
36	0x3d801940	0.06254816
37	0xbcc88ab8	-0.024480209
38	0xbc8b8dc0	-0.017035365
39	0xbd9384e7	-0.072030835
40	0x3d116cca	0.03550414
41	0x3cc66b46	0.024221074
42	0xbd4b9581	-0.049703125
43	0x3ca6ba30	0.020352453
44	0x3d259c34	0.04043217
45	0xbd5c8b9d	-0.053844083
46	0x3de6ebde	0.11275457
47	0xbd642157	-0.055695858
48	0x3d88f000	0.06686401
49	0xbd053d9c	-0.03252946
50	0xbd7ff79d	-0.062492
51	0xbcf2f978	-0.029659972
52	0xbb4aede0	-0.0030964538
53	0xbcab8812	-0.020938907
54	0x3d92f40a	0.07175453
55	0xbd84a7a8	-0.064772904
56	0xbd6b3743	-0.05742575
57	0xbcb71414	-0.022348441
58	0xbda5892e	-0.080828056
59	0xbd5003a3	-0.05078472
60	0xbd926207	-0.071476035
61	0x3d49c602	0.0492611
62	0xbd172aef	-0.03690618
63	0x3d9408e5	0.07228259
64	0x3dc41f7a	0.09576316
65	0xbd8a5400	-0.06754303
66	0x3db3e2f7	0.087835245
67	0xbbf6f4e0	-0.0075365156
68	0x3dbc792a	0.09202798
69	0x3d70758e	0.05870586
70	0x3d5c4c6e	0.053783827
71	0xbca3a20c	-0.01997473
72	0x3cbc9b14	0.023023166
73	0xbbe9fa30	-0.0071404204
74	0x3d2e1a7a	0.04250572
75	0x3cca7bdb	0.024717262
76	0xbd941eb0	-0.07232416
77	0x3dd14036	0.102173254
78	0xbd9c48eb	-0.076310955
79	0x3db9d5a9	0.090739556

h3.weight f4 [50, 80]
0	0xbd322881	-0.04349566
1	0x3d80f1ad	0.06296096
2	0x3da845c0	0.08216429
3	0xbe0453a3	-0.1292253
4	0xbd8443e2	-0.0645826
5	0x3d57ef3f	0.052718397
6	0xbce519bb	-0.02796637
7	0x3dd08d88	0.10183245
8	0x3d8c2e9c	0.068448275
9	0xbd97954a	-0.074015215
10	0xbdd9bd7d	-0.10631845
11	0xbdd5cd6b	-0.10439571
12	0xbd38b580	-0.045094967
13	0xbd348a70	-0.044077337
14	0x3d8b8f0c	0.068143934
15	0xbd97019a	-0.07373352
16	0xbde1e3dd	-0.110297896
17	0x3d7f8b8a	0.062388934
18	0xbd097aa2	-0.033564217
19	0x3e01dcab	0.12681834
20	0x3dc914c7	0.09818416
21	0x3cce5170	0.025185317
22	0x3d0d5702	0.034506805
23	0x3ddb375a	0.10703917
24	0xbc94c41c	-0.018159918
25	0x3d9dd1e6	0.077060506
26	0x3dc3b156	0.095553085
27	0xbddcffec	-0.10791001
28	0x3d966704	0.073438674
29	0x3da67d75	0.08129398
30	0x3d2a89aa	0.041635193
31	0x3d2abb14	0.041682318
32	0x3e149b75	0.14512427
33	0xbd07591e	-0.033043973
34	0xbd70f329	-0.058825646
35	0xbcb8ced6	-0.022559565
36	0x3de0c3c1	0.10974837
37	0x3d66480c	0.056221053
38	0xbceacfc4	-0.028663523
39	0xbbcc87b1	-0.0062417616
40	0x3cc02a60	0.023457706
41	0xbd40d82b	-0.047081154
42	0x3d822f14	0.06356636
43	0x3d8bae68	0.06820375
44	0x3d32ad12	0.043622084
45	0x3b1b5d11	0.0023706595
46	0xbd6fcc2a	-0.058544315
47	0xbd0dfedc	-0.03466688
48	0x3e0bef0f	0.13665412
49	0x3bf12200	0.0073587894
50	0xbd052218	-0.032503217
51	0xbd1521e2	-0.036409266
52	0xbd659366	-0.056048773
53	0x3df234db	0.11826488
54	0xbd8cba1d	-0.06871436
55	0xbd2402b7	-0.04004165
56	0x3d97df32	0.07415618
57	0xbd9c3de2	-0.07628991
58	0x3dec3951	0.1153437
59	0xbdbb173c	-0.09135291
60	0x3e0d6bcf	0.13810657
61	0x3d870c52	0.06594147
62	0xbd9de513	-0.07709708
63	0xbd75767e	-0.059927456
64	0x3cc315b3	0.023814058
65	0xbd0627a9	-0.032752667
66	0x3d55f860	0.052238822
67	0x3ddfdd20	0.10930848
68	0x3dea6186	0.11444382
69	0x3d73fe4c	0.05956869
70	0xbd90d5d4	-0.070720345
71	0x3dce33b8	0.10068458
72	0x3d87cdd2	0.06631054
73	0xbd6351a4	-0.05549778
74	0x3d804a3d	0.0626416
75	0xbd3f7dd6	-0.046750866
76	0xbd963cb0	-0.07335794
77	0x3d343cf1	0.04400343
78	0x3d6b7010	0.057479918
79	0xbdac4856	-0.084122345
80	0xbbeb66fd	-0.007183908
81	0x3c4d2ed9	0.012523376
82	0xbccc5d1c	-0.024946742
83	0x3d8eb3d0	0.0696789
84	0xbd333178	-0.04374835
85	0x3ddc5d76	0.10760014
86	0xbd5a2cdb	-0.053265434
87	0xbce468b5	-0.02788196
88	0x3cf5f630	0.030024618
89	0x3c8d9768	0.01728411
90	0x3dc3799c	0.095446795
91	0xbd85abe0	-0.06526923
92	0x3d8d5a3a	0.06901975
93	0xbdc53b24	-0.09630421
94	0xbc7218c0	-0.014776409
95	0xbce207c8	-0.027591601
96	0x3d19ef84	0.037581936
97	0xbd4acb92	-0.049510546
98	0x3d1aa880	0.03775835
99	0x3d7197e3	0.05898274
100	0x3d208340	0.03918767
101	0x3dcaf28a	0.09909542
102	0x3c9443eb	0.018098792
103	0x3d89fee4	0.0673807
104	0x3e156e04	0.14592749
105	0x3ca2ebd8	0.01988785
106	0x3caea340	0.021318078
107	0xbbfa9970	-0.0076476857
108	0x3dce0ef8	0.10061449
109	0x3c2113f2	0.0098314155
110	0x3c4f407b	0.012649651
111	0x3dd1bce6	0.10241108
112	0xbda9be51	-0.08288253
113	0xbd93d367	-0.07218056
114	0xbdb611bd	-0.08890102
115	0x3d41df7c	0.047332272
116	0x3df3b5d6	0.11899917
117	0xbc811e5c	-0.015761547
118	0xbc276578	-0.010217063
119	0x3c5e4b9e	0.013567833
120	0x3c3f99a8	0.011694349
121	0x3dc1acff	0.094568245
122	0xbd6969ce	-0.05698567
123	0xbdca7cf0	-0.09887111
124	0x3cc266d8	0.02373068
125	0xbdad3096	-0.08456533
126	0x3c24a945	0.010050123
127	0xbccb7d2c	-0.02483996
128	0x3dba2b7d	0.09090326
129	0x3ccf8010	0.02532962
130	0x3dcc69e2	0.09981133
131	0x3c9c9f08	0.0191188
132	0xbcb88559	-0.022524523
133	0xbe2abb5f	-0.16673039
134	0x3caece3d	0.021338576
135	0xbd6ea38e	-0.058261447
136	0xbc5ee8b0	-0.013605282
137	0xbb383c40	-0.0028112084
138	0xbdb509eb	-0.08839782
139	0xbc3c6de8	-0.011500813
140	0xbda904a4	-0.08252838
141	0x3d7066e0	0.05869186
142	0xbc491bbd	-0.01227468
143	0x3df09fb9	0.11749215
144	0x3d453712	0.048148222
145	0xbccdeb28	-0.025136545
146	0x3bb34e59	0.0054719863
147	0x3d01f094	0.031723574
148	0xbd62f83c	-0.055412516
149	0x3e0e5056	0.13897833
150	0x3d9fe388	0.0780707
151	0xbc1a5be8	-0.009421326
152	0x3d6df4ec	0.058094904
153	0x3db8935c	0.090124816
154	0xbc3b998a	-0.011450181
155	0x3d506f55	0.050887424
156	0x3d8d2934	0.068926245
157	0xbd252fa3	-0.040328633
158	0xbda4becc	-0.08044204
159	0xbda0991d	-0.07841704
160	0x39d4ee00	0.00040613115
161	0xbda34f66	-0.079741284
162	0x3da4ca12	0.08046354
163	0xbd4cb045	-0.04997279
164	0x3dc06d12	0.093958035
165	0xbda72afb	-0.08162495
166	0xbd367a62	-0.044550307
167	0x3d9d4a06	0.076801345
168	0xbc5d3e28	-0.013503589
169	0x3d8f979e	0.070113406
170	0x3d48094c	0.04883699
171	0x3d88d334	0.06680909
172	0xbd3c01d4	-0.04590018
173	0x3d7000a4	0.05859436
174	0xbdc0df0e	-0.09417544
175	0xbd9dea13	-0.07710662
176	0xbcf61ba4	-0.030042477
177	0xbd459ba8	-0.04824415
178	0x3da62e18	0.081142604
179	0xbda77246	-0.08176093
180	0xbd75408a	-0.059876002
181	0x3bd64c80	0.006539881
182	0xbde1c6d4	-0.110242516
183	0xbde329ca	-0.11091955
184	0x3d870b1c	0.06593916
185	0xbc433f38	-0.011916928
186	0xbdd73127	-0.10507422
187	0xbdcaad10	-0.0989629
188	0x3de228fa	0.11042972
189	0xbd435440	-0.04768777
190	0x3d8c9f18	0.06866282
191	0xbd67e701	-0.056616787
192	0xbdc55b4c	-0.09636554
193	0xbd31013c	-0.043214068
194	0x3d7631bc	0.060106024
195	0xbd8d0237	-0.06885188
196	0x3d71b514	0.05901058
197	0x3b591280	0.00331226
198	0x3db4d9aa	0.088305786
199	0x3ca14b50	0.019689232
200	0x3c3c29a8	0.011484541
201	0xbb933e10	-0.0044934824
202	0xbd88e82e	-0.0668491
203	0xbdbb2a56	-0.09138934
204	0x3d966cfa	0.073450044
205	0x3d928416	0.071541
206	0x3d6b49a4	0.057443276
207	0x3dc17cd0	0.09447634
208	0xbd2acc68	-0.041698843
209	0x3d888642	0.06666233
210	0xbd84036e	-0.06445967
211	0x3d56c1a8	0.05243078
212	0x3d28557c	0.04109715
213	0xbdb319b8	-0.0874514
214	0x3d0aa078	0.03384444
215	0xbb8f62f0	-0.004375808
216	0x3da173ae	0.07883392
217	0x3d4cb454	0.04997666
218	0x3c3b4150	0.011429146
219	0x3de4f170	0.11178863
220	0xbd52e8a4	-0.051491395
221	0x3d0dfc90	0.03466469
222	0xbdc0a872	-0.094071284
223	0x3b8bf160	0.0042707175
224	0x3b1be040	0.0023784786
225	0x3d9204fe	0.071298584
226	0xbdba1b23	-0.09087207
227	0xbd3fa7aa	-0.046790756
228	0xbdb439c3	-0.0880008
229	0xbd827147	-0.06369262
230	0x3d90054e	0.07032262
231	0xbcd48ab0	-0.025945038
232	0xbdce8d15	-0.10085503
233	0x3db2e38e	0.08734809
234	0x3de39518	0.11112422
235	0x3d5e6f10	0.054305136
236	0xbd21287c	-0.03934525
237	0x3d04f244	0.032457605
238	0x3c817888	0.015804544
239	0xbd05a9ba	-0.032632567
240	0x3d85d3cd	0.065345384
241	0x3dc55034	0.09634438
242	0x3d15f9cc	0.036615178
243	0xbd89868d	-0.06715117
244	0x3dc9d35e	0.09854768
245	0x3d82d87c	0.06388947
246	0xbd6a4d80	-0.057202816
247	0xbd6cd4c2	-0.05782009
248	0x3db86814	0.09004226
249	0xbd2f0bda	-0.042735912
250	0x3e0156de	0.12630793
251	0xbd5226dc	-0.05130659
252	0x3b87dfc1	0.0041465466
253	0xbdc4927e	-0.09598254
254	0xbd857852	-0.0651709
255	0x3d0ff154	0.035142258

h3.bias f4 [50]
0	0x3da65a12	0.08122648
1	0x3c663c87	0.014052517
2	0xbd4ddfa2	-0.0502621
3	0xbc82b710	-0.015956432
4	0x3d98f100	0.07467842
5	0x3d5fd096	0.054642282
6	0xbd1f3f9e	-0.03887903
7	0x3d6bc4e9	0.057560835
8	0x3d55a51e	0.05215942
9	0xbd0370f4	-0.032090142
10	0xbd50e857	-0.051002827
11	0x3c907b26	0.017636847
12	0x3ce13f10	0.02749589
13	0x3dfab12f	0.12240826
14	0xbc0b2291	-0.008492128
15	0x3c875230	0.016518682
16	0x3cb6c391	0.02231005
17	0x3d50f2b9	0.05101273
18	0x3d9a47b2	0.07533206
19	0xbd9fa46e	-0.07795034
20	0x3dd1bd9e	0.10241245
21	0x3ceeb186	0.029137384
22	0x3dd4c4d1	0.10389102
23	0xbdb08008	-0.0861817
24	0x3dc68c80	0.09694767
25	0x3da48477	0.08033078
26	0xbd307424	-0.04307951
27	0xbdd34c22	-0.103172556
28	0x3c6067a5	0.013696586
29	0x3d9a8dd6	0.07546584
30	0xbd69f074	-0.05711408
31	0x3d39221f	0.045198556
32	0x3cf784a3	0.030214613
33	0x3ddadcf7	0.10686677
34	0x3e018aea	0.12650648
35	0x3d74a032	0.059723087
36	0xbc9fca20	-0.01950556
37	0xbd022f9c	-0.031783685
38	0x3da924c2	0.08258964
39	0xbd89f54b	-0.06736239
40	0xbd079401	-0.033100132
41	0xbd7359b7	-0.05941173
42	0xbdd52001	-0.10406495
43	0x3dcecb62	0.10097386
44	0x3d9b53f8	0.07584375
45	0x3d393036	0.045211993
46	0x3dafb706	0.08579831
47	0x3dad6e5c	0.08468315
48	0x3d9a9d7c	0.07549569
49	0xbd96967f	-0.073529236

output.weight f4 [2, 50]
0	0x3dcdbd30	0.1004585
1	0x3cc1c757	0.023654623
2	0x3e0af9f7	0.13571917
3	0x3e66b321	0.2252927
4	0x3d16c262	0.03680647
5	0xbd9086f2	-0.07056989
6	0x3e0858d7	0.1331514
7	0xbe1b98c6	-0.15194997
8	0xbd32d428	-0.04365936
9	0x3d2c1798	0.04201469
10	0x3d1357f4	0.03597255
11	0x3df6cbb2	0.120505705
12	0xbda931fc	-0.08261487
13	0x3d2b764f	0.041860875
14	0xbd1cdb28	-0.03829494
15	0xbde9a894	-0.11409107
16	0x3da9a65f	0.08283686
17	0x3e0fbe9e	0.14037558
18	0xbce9b385	-0.028527984
19	0x3d92af3a	0.07162328
20	0x3d37d809	0.04488376
21	0x3ddf5c23	0.109062456
22	0x3bbfb0a8	0.0058499165
23	0x3d2f88f0	0.042855203
24	0x3dcc1490	0.099648595
25	0xbd377eec	-0.044798777
26	0x3e271112	0.16315106
27	0x3d22272c	0.03958814
28	0xbde6de3d	-0.11272857
29	0x3ded255f	0.115793936
30	0xbd62c4fa	-0.055363633
31	0xbe0ce298	-0.13758314
32	0xbd5a661f	-0.053320047
33	0xbe573f86	-0.21020326
34	0xbd268573	-0.04065461
35	0xbdbaad90	-0.09115136
36	0xbdd08082	-0.10180761
37	0x3e1623c5	0.14662082
38	0x3dbb5cc0	0.0914855
39	0x3d865474	0.06559077
40	0x3e57700b	0.21038835
41	0x3c3bfc15	0.011473675
42	0x3e163c68	0.1467148
43	0x3e0ab4e4	0.13545567
44	0x3e0beb1a	0.13663903
45	0x3d5e7937	0.05431482
46	0x3db2b227	0.08725386
47	0x3e1a4b0e	0.15067694
48	0x3e081912	0.13290814
49	0xbde5e2eb	-0.11224922
50	0x3e1fa8e6	0.15591773
51	0xbdc48751	-0.09596122
52	0x3dbbd958	0.091723144
53	0xbe22ff1d	-0.1591763
54	0x3e26432a	0.16236559
55	0x3e20a840	0.15689182
56	0xbd255ec0	-0.040373564
57	0x3e2a8bf9	0.16654958
58	0x3d9ea3f3	0.077461146
59	0xbdbf15e8	-0.0933035
60	0x3dde2ea5	0.108487405
61	0xbe54eaa7	-0.20792638
62	0xbd9789b8	-0.07399315
63	0x3e2e7aae	0.17038986
64	0x3d5d1872	0.05397839
65	0xbd9d70b8	-0.07687515
66	0xbe09863d	-0.13430114
67	0x3cea501f	0.028602658
68	0x3d718ef6	0.05897423
69	0xbcc9a124	-0.02461297
70	0x3d6f26c2	0.05838657
71	0x3e16fca6	0.14744815
72	0xbdfde446	-0.12397055
73	0x3d068954	0.03284581
74	0x3cbdc7d6	0.023166578
75	0xbdfdadfe	-0.12386702
76	0xbe2ec673	-0.1706789
77	0xbbd67740	-0.0065449774
78	0xbe08c1f7	-0.13355242
79	0x3e40af10	0.18816781
80	0xbdf82c62	-0.1211784
81	0xbb5222b4	-0.0032064142
82	0xbced0f47	-0.028937949
83	0xbd676e67	-0.056501772
84	0x3e355d0f	0.1771128
85	0x3bab33b9	0.0052246717
86	0xbd5e045c	-0.054203376
87	0x3e211678	0.15731227
88	0x3da587fb	0.08082577
89	0xbd1cf6f2	-0.038321443
90	0xbe319507	-0.17342006
91	0xbe0e00e0	-0.13867521
92	0xbda05b38	-0.078298986
93	0xbcd5c5bf	-0.02609527
94	0x3dee29c0	0.11629057
95	0x3cc97ea6	0.024596523
96	0x3d7730e0	0.060349345
97	0x3e1a9a89	0.15098013
98	0x3d0caee4	0.034346476
99	0x3e083011	0.13299586

output.bias f4 [2]
0	0x3d62d5f7	0.055379834
1	0xbdbb98eb	-0.09160026
