exp/weights/direct_regress.pth (torch, 56519 bytes, 10 tensors)

input.weight f4 [10, 4]
0	0x3e9bf792	0.3046232
1	0xbe5bcde2	-0.21465257
2	0xbd77eea4	-0.06053032
3	0x3e879ae3	0.26485357
4	0xbed180b1	-0.40918496
5	0x3ebeeea7	0.37291452
6	0xbd2d687f	-0.042335983
7	0x3ea87963	0.3290511
8	0x3dd04e0a	0.10171135
9	0xbd82d021	-0.06387354
10	0x3e1eb1e5	0.15497549
11	0x3d1097f8	0.03530118
12	0x3e6c41c2	0.2307196
13	0xbe5dbfec	-0.21655244
14	0xbc6875fd	-0.014188287
15	0xbccc54b1	-0.024942728
16	0x3d946c30	0.07247198
17	0xbb02e700	-0.0019974113
18	0x3edfc964	0.43708336
19	0x3e1f5450	0.15559506
20	0xbdc075b8	-0.09397453
21	0xbe9e3178	-0.30897117
22	0xbdc79602	-0.097454086
23	0xbe675bd5	-0.22593625
24	0xbe2411d4	-0.16022426
25	0x3cc41f80	0.023940802
26	0x3e989bd4	0.29806387
27	0x3e8b2538	0.27176833
28	0xbf03913c	-0.51393485
29	0x3eb9b4f7	0.36270878
30	0x3e3a346b	0.18184058
31	0x3f0361da	0.51321185
32	0x3ea8f9ae	0.3300299
33	0xbee94052	-0.45556885
34	0xbef3682e	-0.4754042
35	0xbe76f43c	-0.24116606
36	0x3eed4b52	0.46346527
37	0xbe05f00b	-0.1307985
38	0x3e6641ae	0.22485992
39	0xbe69653d	-0.22792526

input.bias f4 [10]
0	0x3f02f196	0.5114988
1	0xbe1d3451	-0.15351988
2	0x3ecaf48b	0.39639696
3	0x3c13fec7	0.009032912
4	0xbe86dd82	-0.26340872
5	0x3e9d6235	0.3073899
6	0xbe87e3d4	-0.26541007
7	0x3e2db5b7	0.1696385
8	0xbe13d7fc	-0.1443786
9	0xbde970a0	-0.11398435

h1.weight f4 [100, 10]
0	0xbe9ba832	-0.3040176
1	0xbe1a63e0	-0.15077162
2	0x3e2fb6d8	0.17159593
3	0xbd9d6cdc	-0.07686779
4	0x3ea144dd	0.3149785
5	0x3e81c8b9	0.25348452
6	0xbc7298c0	-0.014806926
7	0xbe58247c	-0.21107668
8	0x3e453146	0.19257078
9	0x3dc8ff78	0.09814352
10	0xbe515265	-0.20441587
11	0x3e52556e	0.20540401
12	0x3e44970a	0.19198242
13	0x3e8f988f	0.2804608
14	0xbe3584d4	-0.17726451
15	0xbd553580	-0.052052975
16	0xbbc8bc00	-0.006125927
17	0x3d3d2f08	0.04618743
18	0xbe75c036	-0.23999104
19	0xbe65c9b8	-0.22440231
20	0x3e3df2bb	0.18549626
21	0x3db89534	0.09012833
22	0x3e2a09c2	0.16605285
23	0x3e36d320	0.17853975
24	0x3dd4a5bc	0.10383174
25	0x3e4bbdd8	0.19896638
26	0x3deb7ac0	0.11498022
27	0x3e1c3fa3	0.1525865
28	0xbe95f20e	-0.29286236
29	0x3e58f1d4	0.21186
30	0xbe66bb78	-0.22532451
31	0x3b87b031	0.0041408767
32	0x3d0353ae	0.032062225
33	0xbddb27a2	-0.10700919
34	0x3e3e2f86	0.18572816
35	0xbeac76d4	-0.3368441
36	0xbe8fef10	-0.28112078
37	0x3e9e8bd6	0.3096606
38	0xbd401098	-0.046890825
39	0x3cafda26	0.021466326
40	0x3dd44a57	0.10365742
41	0xbe3031fd	-0.17206569
42	0x3d80fd4d	0.06298313
43	0x3e437777	0.19088541
44	0xbe58d08c	-0.21173304
45	0xbde7e13b	-0.11322256
46	0x3ddcd3dc	0.107825965
47	0x3d239a20	0.039941907
48	0xbe09be34	-0.13451463
49	0xbc4c2ca9	-0.01246182
50	0x3e9e70cd	0.30945435
51	0x3d1a4369	0.037661944
52	0x3e4873d3	0.19575433
53	0x3e8b959d	0.27262583
54	0xbe515159	-0.20441188
55	0xbe4c2978	-0.19937694
56	0x3e9b6a0d	0.30354348
57	0x3c928539	0.017885791
58	0x3e5df68e	0.21676084
59	0x3e227034	0.15863115
60	0x3dfb38e7	0.12266713
61	0x3e9e2dec	0.3089441
62	0x3ea30264	0.3183776
63	0xbda57540	-0.08079004
64	0x3d21f238	0.03953764
65	0x3e948ddf	0.2901449
66	0x3e6a95a6	0.22908649
67	0x3e4b87da	0.19876042
68	0xbe6a5a47	-0.22886
69	0xbe03aac7	-0.12858115
70	0xbe43d5e2	-0.19124559
71	0x3d22b8f8	0.03972718
72	0x3ea15e5f	0.31517312
73	0xbe4c8c26	-0.19975337
74	0x3e2c8e58	0.16851175
75	0xbe333a9f	-0.17502831
76	0xbe983aa1	-0.2973223
77	0xbd89a5e4	-0.06721094
78	0x3e3a92f6	0.18220124
79	0x3e964fd9	0.29357794
80	0xbe491a62	-0.1963897
81	0x3d8c8b40	0.06862497
82	0x3e8bb45b	0.27286038
83	0x3e569422	0.20954946
84	0x3e49cf76	0.19708046
85	0x3e661d76	0.22472176
86	0x3e4cd1da	0.20001927
87	0x3da74818	0.08168048
88	0xbe5d6ec8	-0.21624291
89	0xbe87f6d2	-0.26555496
90	0xbe172591	-0.14760424
91	0xbe803820	-0.2504282
92	0xbe4c5af5	-0.19956572
93	0x3e3defac	0.18548459
94	0x3dc86f5c	0.09786865
95	0xbde17ebe	-0.11010502
96	0x3df8e98c	0.121539205
97	0x3da44706	0.08021359
98	0x3e45b3fa	0.19306937
99	0x3ea492d7	0.3214328
100	0xbdb123f2	-0.08649434
101	0x3ef16c25	0.4715282
102	0xbc9394c3	-0.018015271
103	0x3e1c8c48	0.15287888
104	0xbe98d283	-0.29848108
105	0xbda2d87d	-0.07951448
106	0xbe3d2cd7	-0.18474136
107	0xbe093470	-0.1339891
108	0x3e663966	0.22482833
109	0xbd2b6cbc	-0.041851744
110	0xbe5b98c4	-0.21444994
111	0x3e807b39	0.2509401
112	0x3df77c4d	0.12084255
113	0x3eb4070e	0.35161632
114	0xbe2790ff	-0.16363905
115	0x3e20b58e	0.15694258
116	0xbdebc590	-0.115122914
117	0xbd8c03c7	-0.06836658
118	0xbe810728	-0.25200772
119	0xbd7589df	-0.059945937
120	0xbdc657d2	-0.09684719
121	0x3e0a79c6	0.13523015
122	0x3d6ca1c8	0.057771474
123	0x3d9ff9f4	0.07811347
124	0x3ea19a11	0.31562856
125	0x3e9dccf3	0.30820426
126	0x3e5cdbce	0.21568224
127	0x3c24fbe0	0.010069817
128	0xbe600394	-0.21876365
129	0x3e7d10fa	0.24713507
130	0xbda1f31e	-0.07907699
131	0xbcd16ed0	-0.025565535
132	0xbe8b7bee	-0.27242988
133	0xbd7fda48	-0.06246403
134	0xbe50dbb1	-0.20396306
135	0x3e94c75f	0.29058358
136	0xbe8bf931	-0.27338555
137	0xbe7c68f2	-0.24649408
138	0xbc2fee20	-0.010737926
139	0xbe2f17ce	-0.17098925
140	0x3de7bb30	0.11315
141	0xbdf94a84	-0.12172416
142	0xbe1817ca	-0.14852825
143	0x3c92b8d0	0.017910391
144	0x3e6a691e	0.22891662
145	0xbe63c7de	-0.22244212
146	0x3e18110e	0.14850256
147	0x3e50089a	0.20315781
148	0x3e9e60e9	0.30933312
149	0xbe62a652	-0.22133759
150	0x3d85c421	0.06531549
151	0xbee1eb4e	-0.44124836
152	0x3e8504f2	0.25980335
153	0xbea5684e	-0.3230614
154	0x3e430d5e	0.19048068
155	0xbe1fd5c6	-0.15608892
156	0xbcc9c210	-0.024628669
157	0xbbb8e6e5	-0.005642759
158	0x3d5c3048	0.053756982
159	0x3e3d49e5	0.1848522
160	0x3d4fbc30	0.05071658
161	0x3dc59068	0.09646684
162	0xbe91a40b	-0.28445467
163	0x3e6be9ba	0.23038378
164	0x3e8d298b	0.27570757
165	0x3e85d5a9	0.26139572
166	0x3e6f5f7e	0.23376271
167	0xbe69ad3b	-0.22819988
168	0xbdf013fe	-0.11722563
169	0x3e8ec249	0.27882603
170	0xbe76a35e	-0.24085757
171	0x3e92e30d	0.2868885
172	0xbe7eae54	-0.24871188
173	0xbe641980	-0.22275352
174	0x3e1e4ea0	0.1545968
175	0xbe68a8bd	-0.22720619
176	0xbd945f9e	-0.072448
177	0x3e6b930a	0.2300531
178	0x3e803efb	0.2504805
179	0x3e992041	0.2990742
180	0xbd836a94	-0.064168125
181	0xbe7bb0c0	-0.24579144
182	0x3e9f6abf	0.31136128
183	0xbd89f68c	-0.06736478
184	0xbe053ad3	-0.13010721
185	0x3d9de058	0.07708806
186	0xbe62740c	-0.22114581
187	0x3e54d6b2	0.20785025
188	0x3e4af266	0.1981903
189	0xbe8078b1	-0.2509208
190	0xbe84fcbe	-0.25974077
191	0xbce2ec00	-0.027700424
192	0x3e0802f0	0.1328237
193	0xbc160e20	-0.009158641
194	0xbe243351	-0.160352
195	0x3bece780	0.0072297454
196	0xbe982ee1	-0.29723266
197	0xbe64dc84	-0.22349745
198	0xbe578fca	-0.21050945
199	0x3e85562f	0.26042315
200	0x3e99eec7	0.30064985
201	0xbc8a637a	-0.016893137
202	0x3d09e939	0.033669684
203	0x3e8d0455	0.27542368
204	0x3d1b3218	0.03788957
205	0xbdc2eec0	-0.09518194
206	0x3e3ac200	0.18238068
207	0x3e4a173a	0.19735423
208	0xbc9622d0	-0.018327147
209	0x3d6ced71	0.05784363
210	0x3e90e504	0.28299725
211	0x3e9a1cb3	0.3010002
212	0xbe3eb5cc	-0.18624038
213	0x3ecfeee5	0.4061195
214	0x3da04590	0.07825768
215	0xbe4f18e8	-0.20224345
216	0x3e3142f8	0.17310703
217	0xbe8466c1	-0.25859645
218	0x3e95978d	0.29217187
219	0xbdf6a13e	-0.12042473
220	0x3db72b4c	0.08943805
221	0x3dc53470	0.09629142
222	0x3d9a0b84	0.07521728
223	0x3e864a65	0.26228634
224	0xbe067f50	-0.13134503
225	0xbe08b4bd	-0.13350196
226	0xbe8c4e2d	-0.27403393
227	0xbc54a140	-0.012977898
228	0xbe19661d	-0.1498036
229	0x3c4f9a00	0.012670994
230	0xbd6d440e	-0.05792623
231	0xbe3ebe1d	-0.1862721
232	0x3e8e008f	0.277348
233	0x3db5caef	0.08876597
234	0xbdd0a10e	-0.10186969
235	0xbe86f972	-0.26362187
236	0xbe8d3587	-0.275799
237	0x3e835a98	0.25655055
238	0xbd756038	-0.059906214
239	0x3e63bd56	0.22240195
240	0x3c3fa760	0.01169762
241	0xbe4e5baa	-0.20152155
242	0x3e365e2a	0.17809358
243	0x3e357926	0.17721996
244	0x3c8275a0	0.015925229
245	0xbe380591	-0.17970873
246	0xbe099793	-0.13436727
247	0x3b8eb2c0	0.0043548048
248	0xbe390243	-0.18067269
249	0xbe34ad2f	-0.1764419
250	0xbd413620	-0.04717076
251	0xbdba7c92	-0.09105791
252	0x3d9efb58	0.07762784
253	0xbdaa3a52	-0.08311905
254	0xbd2bb470	-0.041920125
255	0xbdf730ac	-0.1206983

h1.bias f4 [100]
0	0xbe00ca01	-0.12577058
1	0xbe94d36a	-0.29067546
2	0x3e9a122d	0.30091992
3	0x3d189440	0.037250757
4	0x3e14ee93	0.14544134
5	0x3cdd4a65	0.027013013
6	0x3dda7d53	0.10668435
7	0xbe478384	-0.19483763
8	0xbe7bb972	-0.2458246
9	0x3e6b73aa	0.22993341
10	0x3e0e3f8d	0.1389143
11	0x3e329b3e	0.17442033
12	0xbea0b40d	-0.31387368
13	0x3caf2420	0.02137953
14	0xbe970557	-0.2949626
15	0xbd5156ce	-0.051108174
16	0xbc88f270	-0.016717166
17	0xbe63cfda	-0.22247258
18	0xbea05374	-0.3131367
19	0x3b086680	0.0020813048
20	0x3e9a5a80	0.3014717
21	0x3e8c9f18	0.2746513
22	0xbe452598	-0.19252622
23	0xbd7ce1f2	-0.061738916
24	0xbe87651f	-0.26444337
25	0xbe7ce2e4	-0.24695927
26	0xbdb19292	-0.08670534
27	0x3ea8b53d	0.32950774
28	0xbd8b6863	-0.068070196
29	0x3c95e230	0.018296331
30	0x3ea19e67	0.31566164
31	0x3d850ee7	0.06496983
32	0x3e897955	0.26850381
33	0x3e651030	0.22369456
34	0x3e9bbeff	0.30419156
35	0x3d5e2030	0.054229915
36	0xbe82eec1	-0.2557278
37	0xbe8b48b6	-0.27203912
38	0xbe274f25	-0.16338785
39	0x3e7e157f	0.24812888
40	0x3e47e154	0.1951955
41	0x3de561eb	0.11200317
42	0xbe7698a3	-0.24081664
43	0xbe6eced9	-0.23321094
44	0x3e8b2e36	0.27183694
45	0xbd067428	-0.03282562
46	0xbea1352a	-0.31485873
47	0xbd201fa8	-0.03909269
48	0xbd837717	-0.06419199
49	0xbb62b7d6	-0.0034594438
50	0x3e16b31d	0.14716764
51	0x3df8ec49	0.12154443
52	0xbe77c72e	-0.24197075
53	0x3c6754f5	0.014119376
54	0xbe238436	-0.15968403
55	0x3e6e15cc	0.23250502
56	0x3e2dad7a	0.16960707
57	0x3e43cff1	0.19122292
58	0x3e9c7765	0.3055984
59	0x3e1a31f4	0.15058118
60	0xbea1cb41	-0.31600383
61	0x3da36ae4	0.07979372
62	0xbe5e32dd	-0.2169909
63	0x3d73b772	0.05950112
64	0x3d33c277	0.043886628
65	0x3ea59444	0.3233968
66	0xbe5d3d3e	-0.21605393
67	0xbe9ea1bd	-0.30982772
68	0xbdb2815b	-0.08716079
69	0x3d3c80a9	0.046021137
70	0x3e653a93	0.22385626
71	0x3e8a0ee1	0.26964477
72	0x3e7962f6	0.24354157
73	0x3dee97a6	0.116500184
74	0xbdb914ce	-0.09037171
75	0xbd41ae8b	-0.047285598
76	0xbe3014bc	-0.1719541
77	0x3da00356	0.07813136
78	0xbe613217	-0.21991764
79	0x3e048e6e	0.12944958
80	0x3e511fe6	0.20422325
81	0x3e809167	0.25110933
82	0xbe9f9652	-0.31169373
83	0x3e8f83f6	0.28030366
84	0xbe3cd932	-0.18442228
85	0xbcd38460	-0.025819957
86	0x3e9c03c5	0.30471626
87	0x3e3dfb2a	0.18552843
88	0xbdcd6e74	-0.10030833
89	0x3e3d8c3a	0.18510523
90	0xbe9d7a6f	-0.30757472
91	0x3e8205bc	0.25395
92	0x3ea4974d	0.32146683
93	0x3b4dbb6c	0.003139223
94	0x3d1fafc7	0.038985994
95	0xbd97f796	-0.0742027
96	0xbe47ec92	-0.19523838
97	0xbe127776	-0.14303383
98	0xbc6e61fc	-0.0145497285
99	0xbe8475b4	-0.2587105

h2.weight f4 [80, 100]
0	0xbda585b3	-0.08082142
1	0x3c33cf50	0.01097472
2	0xbd854216	-0.065067455
3	0xbd5ecce0	-0.054394603
4	0xba62b300	-0.0008647889
5	0xbd57dc43	-0.052700292
6	0x3dbd92a9	0.09256489
7	0xbd13dd8a	-0.036099948
8	0xbd63bffd	-0.055603016
9	0xbcda3d94	-0.02664069
10	0xbda71743	-0.08158734
11	0x3d53023e	0.05151581
12	0x3daff697	0.08591955
13	0xbd6c3893	-0.05767114
14	0xbd184430	-0.037174404
15	0x3dbf221b	0.09332677
16	0xbd9426b0	-0.072339416
17	0x3cdddf2c	0.027083956
18	0xbda6dd28	-0.08147651
19	0xbdb64805	-0.089004554
20	0x391eaa00	0.00015131384
21	0xbd69c62d	-0.05707376
22	0x3d5dd562	0.054158576
23	0xbcfd6218	-0.030930564
24	0x3a812480	0.0009852797
25	0xbd55d7e3	-0.05220784
26	0x3d2851a6	0.04109349
27	0x3dbdc07b	0.09265228
28	0xbc764cd8	-0.015032969
29	0xbd7ccf37	-0.061721053
30	0xbdc7bf0f	-0.097532384
31	0x3dc44099	0.095826335
32	0x3d2ca30a	0.042147674
33	0x3d2928be	0.04129862
34	0x3c8b78ec	0.017025433
35	0x3d4d87f6	0.05017849
36	0x3d117402	0.035511024
37	0x3d47ff6e	0.04882758
38	0x3d8015cb	0.06254157
39	0x3c685340	0.014180005
40	0x3db066ed	0.086133815
41	0x3d7eb292	0.062182017
42	0xbb489e40	-0.0030611902
43	0xbd36f25a	-0.04466472
44	0x3bd938a0	0.0066290647
45	0x3d9f8029	0.077881165
46	0x3d81bc85	0.06334785
47	0xbd25fadd	-0.040522445
48	0xbcab068c	-0.020877145
49	0x3d22a0b2	0.039704032
50	0x3d1a545a	0.0376781
51	0x3dc304d9	0.09522409
52	0x3d46e57e	0.048558705
53	0x3d027e2a	0.0318586
54	0x3cbd5518	0.023111865
55	0xbdc07883	-0.09397986
56	0xbd16e764	-0.036841765
57	0x3c2d66f0	0.010583624
58	0xbd8e78c0	-0.06956625
59	0xbdb3706b	-0.087616764
60	0x3d8a3211	0.06747831
61	0x3d0b4eb2	0.034010597
62	0xbda54440	-0.08069658
63	0x3bc27c20	0.005935207
64	0x3d713906	0.058892272
65	0x3d6bf5d2	0.05760748
66	0x3dbb066f	0.091320865
67	0xbd21f503	-0.039540302
68	0x3d366222	0.04452718
69	0xbda62150	-0.081118226
70	0xbc4a1890	-0.012334958
71	0xbd82407c	-0.06359956
72	0xbc9bfd14	-0.019041575
73	0x3d692db6	0.05692836
74	0x3d4c3222	0.049852498
75	0xbd5774a3	-0.052601468
76	0xbccb22c0	-0.024796844
77	0xbca3e2a0	-0.020005524
78	0xbd1bd2a3	-0.038042676
79	0xbd60606a	-0.054779448
80	0x3d966261	0.07342983
81	0x3d8d9053	0.06912293
82	0x3daaf901	0.08348275
83	0xbd60ea87	-0.054911163
84	0x3d95f8e3	0.07322862
85	0xbcf8682c	-0.03032311
86	0xbcc076d4	-0.023494162
87	0xbcdc8e78	-0.026923403
88	0xbb9f55a0	-0.004862502
89	0xbd335cfd	-0.043789852
90	0x3c601068	0.013675787
91	0xbd840065	-0.06445388
92	0x3d2876ae	0.041128807
93	0xbdabbffd	-0.08386228
94	0xbd147d54	-0.036252335
95	0xbd8f0b32	-0.06984557
96	0x3d8a26d9	0.06745691
97	0x3d8cb51f	0.068704836
98	0xbda2e38e	-0.07953559
99	0xbd5f81cd	-0.054567147
100	0x3db74af1	0.08949841
101	0x3ceeb524	0.029139109
102	0x3db91d9b	0.0903885
103	0xbbbf6e42	-0.005842001
104	0x3d7857e9	0.060630713
105	0x3db234c3	0.0870147
106	0xbc0605c8	-0.008180089
107	0xbb96ffb0	-0.004608117
108	0x3d9555f5	0.07291786
109	0x3d672459	0.05643115
110	0x3d70c19f	0.0587784
111	0x3d078b13	0.033091616
112	0xbd2b00ad	-0.04174869
113	0xbd7ab52d	-0.06120794
114	0x3dcc5fef	0.099792354
115	0xba93206c	-0.0011224872
116	0x3db5bedf	0.088742964
117	0x3da7912b	0.081819855
118	0xbd562f2d	-0.052291084
119	0x3bdebaa0	0.00679715
120	0xbbe95e1a	-0.0071218135
121	0x3cac22a1	0.021012606
122	0x3d86f9c3	0.06590607
123	0x3d8a37d2	0.06748928
124	0xbd68a603	-0.056798946
125	0xbd4aacaa	-0.04948107
126	0xbd917d95	-0.07104031
127	0xbd8ed337	-0.0697388
128	0x3dbb696e	0.091509685
129	0xbd7d1970	-0.061791837
130	0x3cafd6a7	0.021464659
131	0x3dab74c2	0.08371879
132	0x3d0683ec	0.032840654
133	0x3c3468d5	0.011011322
134	0x3d95ac22	0.07308222
135	0x3c6101e8	0.013733365
136	0x3d92dc07	0.07170873
137	0x3cb0d4f4	0.021585919
138	0xbaa37b40	-0.0012472644
139	0x3dd03640	0.10166597
140	0x3db7ac0f	0.089683644
141	0x3d150042	0.0363772
142	0x3d9046ed	0.07044778
143	0xbc1f7e33	-0.009734678
144	0x3cb51cea	0.022108514
145	0x3dac0fc3	0.08401444
146	0xbdc1598f	-0.0944091
147	0x3c237228	0.009975947
148	0x3e115782	0.14193538
149	0xbd02ed5d	-0.03196465
150	0xbbc841fe	-0.0061113825
151	0xbbc096a8	-0.0058773346
152	0x3d06f106	0.0329447
153	0x3d93c759	0.07215757
154	0x3cced978	0.025250182
155	0x3d6fe15f	0.05856454
156	0xbc7b06af	-0.015321418
157	0x3d8a748f	0.06760513
158	0xbc80a174	-0.015701987
159	0x3da85247	0.08218818
160	0xbcf06c6c	-0.029348575
161	0xbdae6398	-0.0851509
162	0x3bea0530	0.0071417317
163	0x3d5fb750	0.05461818
164	0x3db38c04	0.0876694
165	0x3c4069b8	0.011743955
166	0x39b9c600	0.0003543347
167	0x3d596372	0.053073354
168	0x3e0689b0	0.13138461
169	0xbc1f488e	-0.009721888
170	0xbd5e607a	-0.054291226
171	0x3cbdaeec	0.023154698
172	0xbc038f40	-0.008029759
173	0x3e65e3a4	0.2245012
174	0xbcc09340	-0.023507714
175	0x3dd13803	0.102157615
176	0xbcafde2e	-0.021468248
177	0xbd895f21	-0.067075975
178	0xbc16b750	-0.009198979
179	0xbd0c7cce	-0.03429871
180	0xbceee5f8	-0.029162392
181	0x3d344907	0.044014957
182	0xbdb1a5dd	-0.08674214
183	0x3db73959	0.08946485
184	0xbd0723f8	-0.032993287
185	0x3d9d233f	0.07672738
186	0x3d6abef4	0.057311013
187	0x3c51da7f	0.012808441
188	0xbdb33b07	-0.08751493
189	0x3d3d604a	0.046234407
190	0xbd64d390	-0.055865824
191	0x3dc81dcf	0.097713105
192	0xbd804c2d	-0.062645294
193	0xbbf45d8d	-0.007457441
194	0xbccf2549	-0.025286334
195	0xbd83b7f8	-0.06431574
196	0x3dcb1a4f	0.09917127
197	0xbc226e98	-0.009914063
198	0xbd25f508	-0.040516883
199	0x3c8ac480	0.016939402
200	0x3d514e1e	0.05109989
201	0xbd274dfa	-0.04084585
202	0xbd7e2393	-0.062045645
203	0xbcac9ab8	-0.02106987
204	0x3dc0fee1	0.09423614
205	0xbc482af0	-0.012217268
206	0xbdac69d8	-0.084186256
207	0x3da0b2bd	0.078465916
208	0x3cc7534c	0.024331711
209	0x3c8e2de0	0.01735586
210	0x3c8c9d14	0.017164744
211	0x3d8ee361	0.06976963
212	0xbd3a8240	-0.045534372
213	0x3d9542f5	0.07288162
214	0x3dc4ef67	0.09615975
215	0xbcd33b8c	-0.02578523
216	0x3d814173	0.063113116
217	0x3d61fbd6	0.05517181
218	0x3dbfcaa9	0.09364826
219	0xbcbea908	-0.02327396
220	0xbd73a82a	-0.059486546
221	0xbd180b3c	-0.03712009
222	0xbd8b55d8	-0.06803483
223	0x3b60d560	0.003430687
224	0x3dc574c9	0.096414156
225	0x3dc6af1d	0.09701369
226	0x3d9ab251	0.075535424
227	0x3c221ed0	0.009895042
228	0x3b0e44c0	0.0021708459
229	0x3d879a31	0.066212066
230	0x3d7336c2	0.059378393
231	0xbc229668	-0.009923555
232	0xbccf3058	-0.025291607
233	0x3d21f5e2	0.039541133
234	0xbb6366c0	-0.0034698695
235	0xbd8fe13d	-0.07025383
236	0xbd40a880	-0.047035694
237	0x3da61731	0.08109892
238	0x3daa8eb9	0.083280034
239	0xbd1f9aed	-0.038966108
240	0xbcafcc8c	-0.02145984
241	0xbd4b01dd	-0.049562324
242	0xbd05b936	-0.032647334
243	0x3dbaafed	0.091155864
244	0xbdb62658	-0.08894032
245	0x3d43747e	0.047718517
246	0xbdb8125d	-0.089878775
247	0xbd436ad3	-0.047709297
248	0xbca6d188	-0.020363584
249	0x3be30ea0	0.0069292337
250	0xbc85094c	-0.016239785
251	0xbd3b3be3	-0.04571141
252	0xbd36b247	-0.044603612
253	0xbd792210	-0.0608235
254	0xbd8ef398	-0.069800556
255	0xbd7f308a	-0.06230215

h2.bias f4 [80]
0	0x3da1399f	0.078723185
1	0xbd1da6c1	-0.038489107
2	0xbc85de34	-0.016341306
3	0xbb755c64	-0.0037439102
4	0xbd8e9148	-0.06961304
5	0xbca2f74b	-0.01989331
6	0xbd407a33	-0.04699154
7	0x3cc10101	0.023560049
8	0x3bf3fdd0	0.0074460283
9	0xbdb79208	-0.089634
10	0x3d9d03df	0.07666754
11	0x3ba9df60	0.005184099
12	0x3db7e1bb	0.089786015
13	0x3c3121c0	0.010811269
14	0xbd2743e7	-0.04083624
15	0xbd203c8c	-0.039120242
16	0xbc4427c0	-0.011972368
17	0xbb8c2693	-0.0042770593
18	0x3ccb6d8c	0.02483251
19	0xbb9e617c	-0.0048333984
20	0xbd5286e3	-0.05139817
21	0x3d0b18a2	0.03395904
22	0x3dcd38ee	0.10020624
23	0xbc616d98	-0.013759039
24	0x3d01df02	0.031706817
25	0xbd8e4bbb	-0.06948038
26	0xbd8754ba	-0.06607957
27	0xbdcb1767	-0.09916573
28	0xbd4e4cdd	-0.05036627
29	0x3d8b6e7c	0.068081826
30	0x3dce9594	0.100871235
31	0x3dca3b83	0.09874632
32	0x3cf8707a	0.03032707
33	0xbd5032c7	-0.050829675
34	0xba27cbc2	-0.0006400907
35	0x3d0eee2d	0.03489511
36	0x3d87b423	0.06626155
37	0xbcc88ab8	-0.024480209
38	0xbc8b8dc0	-0.017035365
39	0xbda23007	-0.07919317
40	0x3d116cca	0.03550414
41	0x3b83498b	0.0040065697
42	0xbd545656	-0.05184015
43	0x3cd40ad9	0.025884079
44	0x3d056330	0.032565296
45	0xbd516394	-0.051120356
46	0x3decf63c	0.11570403
47	0xbd642157	-0.055695858
48	0x3d8b104c	0.06790218
49	0xbd053d9c	-0.03252946
50	0xbd7ff79d	-0.062492
51	0xbcf2f978	-0.029659972
52	0xb93f1c00	-0.0001822561
53	0xbca16fd4	-0.019706644
54	0x3d400d07	0.046887424
55	0xbdb630c0	-0.08896017
56	0xbd6b3743	-0.05742575
57	0xbcb71414	-0.022348441
58	0xbda3c45a	-0.079964355
59	0xbd5003a3	-0.05078472
60	0xbd8fe460	-0.07025981
61	0x3d49c602	0.0492611
62	0xbd4be093	-0.049774718
63	0x3d5d2bfd	0.05399703
64	0x3dcfcc83	0.101464294
65	0xbd85b8de	-0.06529401
66	0x3dba238c	0.09088811
67	0xbbf6f4e0	-0.0075365156
68	0x3dbc706d	0.09201131
69	0x3d1a5858	0.037681907
70	0x3d5c4c6e	0.053783827
71	0xbca3a20c	-0.01997473
72	0x3cbc9b14	0.023023166
73	0xbbe9fa30	-0.0071404204
74	0x3d31594e	0.04329806
75	0x3cf5941c	0.02997785
76	0xbd941eb0	-0.07232416
77	0x3ddda20e	0.10821925
78	0xbd9c48eb	-0.076310955
79	0x3db9d5a9	0.090739556

h3.weight f4 [50, 80]
0	0xbd9b3124	-0.07577732
1	0x3d63720e	0.055528693
2	0x3da845c0	0.08216429
3	0xbdb7e85f	-0.08979868
4	0xbd8443e2	-0.0645826
5	0x3dc18c61	0.09450603
6	0xbd1759bc	-0.03695081
7	0x3dc6b5bc	0.09702632
8	0x3d8c2e9c	0.068448275
9	0xbd97954a	-0.074015215
10	0xbd76c3ff	-0.06024551
11	0xbdd5cd6b	-0.10439571
12	0xbcecd069	-0.028907971
13	0xbd348a70	-0.044077337
14	0x3d8b8f0c	0.068143934
15	0xbda5ccf2	-0.08095731
16	0xbde1e3dd	-0.110297896
17	0x3d498a38	0.04920408
18	0xbd097aa2	-0.033564217
19	0x3ded5204	0.11587909
20	0x3dc86794	0.09785381
21	0x3cce5170	0.025185317
22	0x3d6c4b5f	0.057689067
23	0x3ddb375a	0.10703917
24	0x3cab7258	0.020928547
25	0x3d9dd1e6	0.077060506
26	0x3dc3b156	0.095553085
27	0xbddcffec	-0.10791001
28	0x3d966704	0.073438674
29	0x3da46655	0.08027331
30	0x3ca27997	0.01983337
31	0x3d2abb14	0.041682318
32	0x3df9c55f	0.12195849
33	0xbd07591e	-0.033043973
34	0xbd7f93f4	-0.06239696
35	0x3cb84c1b	0.022497227
36	0x3de4a655	0.11164538
37	0x3d66480c	0.056221053
38	0xbceacfc4	-0.028663523
39	0xbaf7f8bb	-0.0018918732
40	0x3cc02a60	0.023457706
41	0x3b021c40	0.0019853264
42	0x3d6f357b	0.058400612
43	0x3d6ea652	0.058264084
44	0x3d34ffd7	0.0441893
45	0xbc436af3	-0.011927354
46	0xbd6a3958	-0.057183594
47	0xbd0dfedc	-0.03466688
48	0x3e0621f3	0.13098888
49	0x3bf12200	0.0073587894
50	0xbd052218	-0.032503217
51	0xbd1521e2	-0.036409266
52	0xbd5ccc63	-0.053905856
53	0x3d458308	0.048220664
54	0xbd84ace9	-0.064782925
55	0x3cc13408	0.02358438
56	0x3d97df32	0.07415618
57	0xbd9c3de2	-0.07628991
58	0x3de8ed19	0.11373348
59	0xbdbb173c	-0.09135291
60	0x3e01f47c	0.1269092
61	0x3d870c52	0.06594147
62	0x3bf28a00	0.007401705
63	0xbdad2ddd	-0.08456013
64	0x3ba67541	0.0050798957
65	0xbcff4f04	-0.031165607
66	0x3d1d2282	0.038362987
67	0x3ddfdd20	0.10930848
68	0x3dea4aff	0.114400856
69	0x3da54c66	0.080712125
70	0xbd90d5d4	-0.070720345
71	0x3dce33b8	0.10068458
72	0x3d87cdd2	0.06631054
73	0xbd6351a4	-0.05549778
74	0x3d7a2c11	0.06107718
75	0xbd4b7cdd	-0.049679626
76	0xbd963cb0	-0.07335794
77	0x3ce64055	0.028106848
78	0x3d6b7010	0.057479918
79	0xbdac4856	-0.084122345
80	0xbad7f500	-0.0016476214
81	0x3ba4e200	0.005031824
82	0xbccc5d1c	-0.024946742
83	0x3d813978	0.063097894
84	0xbd333178	-0.04374835
85	0x3d94af85	0.0726004
86	0xbd436ce7	-0.04771128
87	0xbc2c58db	-0.010519232
88	0x3cf5f630	0.030024618
89	0x3c8d9768	0.01728411
90	0x3d228fe7	0.039688017
91	0xbd85abe0	-0.06526923
92	0x3d6fc342	0.05853582
93	0xbdc53b24	-0.09630421
94	0xbc7218c0	-0.014776409
95	0xbd58f233	-0.052965354
96	0x3d19ef84	0.037581936
97	0xbd351d39	-0.044217322
98	0x3d1aa880	0.03775835
99	0x3d5867b6	0.05283328
100	0x3d21673c	0.039405093
101	0x3dcaf28a	0.09909542
102	0x3d0af3b0	0.033923805
103	0x3d89fee4	0.0673807
104	0x3db18202	0.08667375
105	0x3ca2ebd8	0.01988785
106	0x3caea340	0.021318078
107	0xbbfa9970	-0.0076476857
108	0x3dce0ef8	0.10061449
109	0x3c3d1809	0.011541375
110	0x3c05c5d6	0.008164844
111	0x3dd1bce6	0.10241108
112	0xbd7ce36a	-0.061740316
113	0xbd93d367	-0.07218056
114	0xbdc19433	-0.09452095
115	0x3983352c	0.00025025883
116	0x3dc977a9	0.098372765
117	0xbc811e5c	-0.015761547
118	0xbc276578	-0.010217063
119	0x3cdc7456	0.026910942
120	0x3c3f99a8	0.011694349
121	0x3d748e1f	0.05970585
122	0xbd6e51d6	-0.058183514
123	0xbdd2aa26	-0.102863595
124	0x3c13eb92	0.009028332
125	0xbda5e2ac	-0.08099875
126	0x3b53d019	0.003232008
127	0xbccb7d2c	-0.02483996
128	0x3db0cd28	0.086328804
129	0x3ccf8010	0.02532962
130	0x3dcc69e2	0.09981133
131	0x3c9c9f08	0.0191188
132	0xbcc667dc	-0.024219446
133	0xbd9a8658	-0.07545155
134	0x3caf5796	0.021404069
135	0xbda11f96	-0.07867353
136	0xbc5ee8b0	-0.013605282
137	0xbb383c40	-0.0028112084
138	0xbdb1a464	-0.08673933
139	0xbc3c6de8	-0.011500813
140	0xbd906864	-0.07051161
141	0x3d7066e0	0.05869186
142	0xbdba8d18	-0.09108943
143	0x3ddb0d30	0.10695875
144	0x3d4d08b2	0.05005712
145	0xbccdeb28	-0.025136545
146	0x3c197999	0.00936737
147	0x3d01f094	0.031723574
148	0xbd6336c0	-0.055472136
149	0x3db9843f	0.09058427
150	0x3d9fe388	0.0780707
151	0xbc1a5be8	-0.009421326
152	0x3d6df4ec	0.058094904
153	0x3db8935c	0.090124816
154	0xbc9bd987	-0.019024624
155	0x3d175627	0.036947396
156	0x3d8d2934	0.068926245
157	0xbcd51b7a	-0.026014078
158	0xbda4becc	-0.08044204
159	0xbda0991d	-0.07841704
160	0x39d4ee00	0.00040613115
161	0xbda34f66	-0.079741284
162	0x3da4ca12	0.08046354
163	0xbd4cb045	-0.04997279
164	0x3dc06d12	0.093958035
165	0xbda72afb	-0.08162495
166	0xbd367a62	-0.044550307
167	0x3d9d4a06	0.076801345
168	0xbc5d3e28	-0.013503589
169	0x3d8f979e	0.070113406
170	0x3d48094c	0.04883699
171	0x3d88d334	0.06680909
172	0xbd3c01d4	-0.04590018
173	0x3d7000a4	0.05859436
174	0xbdc0df0e	-0.09417544
175	0xbd9dea13	-0.07710662
176	0xbcf61ba4	-0.030042477
177	0xbd459ba8	-0.04824415
178	0x3da62e18	0.081142604
179	0xbda77246	-0.08176093
180	0xbd75408a	-0.059876002
181	0x3bd64c80	0.006539881
182	0xbde1c6d4	-0.110242516
183	0xbde329ca	-0.11091955
184	0x3d870b1c	0.06593916
185	0xbc433f38	-0.011916928
186	0xbdd73127	-0.10507422
187	0xbdcaad10	-0.0989629
188	0x3de228fa	0.11042972
189	0xbd435440	-0.04768777
190	0x3d8c9f18	0.06866282
191	0xbd67e701	-0.056616787
192	0xbdc55b4c	-0.09636554
193	0xbd31013c	-0.043214068
194	0x3d7631bc	0.060106024
195	0xbd8d0237	-0.06885188
196	0x3d71b514	0.05901058
197	0x3b591280	0.00331226
198	0x3db4d9aa	0.088305786
199	0x3ca14b50	0.019689232
200	0x3c3c29a8	0.011484541
201	0xbb933e10	-0.0044934824
202	0xbd88e82e	-0.0668491
203	0xbdbb2a56	-0.09138934
204	0x3d966cfa	0.073450044
205	0x3d928416	0.071541
206	0x3d6b49a4	0.057443276
207	0x3dc17cd0	0.09447634
208	0xbd2acc68	-0.041698843
209	0x3d888642	0.06666233
210	0xbd84036e	-0.06445967
211	0x3d56c1a8	0.05243078
212	0x3d28557c	0.04109715
213	0xbdb319b8	-0.0874514
214	0x3d0aa078	0.03384444
215	0xbb8f62f0	-0.004375808
216	0x3da173ae	0.07883392
217	0x3d4cb454	0.04997666
218	0x3c3b4150	0.011429146
219	0x3de4f170	0.11178863
220	0xbd52e8a4	-0.051491395
221	0x3d0dfc90	0.03466469
222	0xbdc0a872	-0.094071284
223	0x3b8bf160	0.0042707175
224	0x3b1be040	0.0023784786
225	0x3d9204fe	0.071298584
226	0xbdba1b23	-0.09087207
227	0xbd3fa7aa	-0.046790756
228	0xbdb439c3	-0.0880008
229	0xbd827147	-0.06369262
230	0x3d90054e	0.07032262
231	0xbcd48ab0	-0.025945038
232	0xbdce8d15	-0.10085503
233	0x3db2e38e	0.08734809
234	0x3de39518	0.11112422
235	0x3d5e6f10	0.054305136
236	0xbd21287c	-0.03934525
237	0x3d04f244	0.032457605
238	0x3c817888	0.015804544
239	0xbd05a9ba	-0.032632567
240	0x3d28ec44	0.041240945
241	0x3d939a81	0.07207204
242	0x3d15f9cc	0.036615178
243	0xbd43b310	-0.04777819
244	0x3dc9d35e	0.09854768
245	0x3d63a020	0.05557263
246	0xbd8f46a3	-0.06995895
247	0xbcedccc5	-0.029028306
248	0x3db86814	0.09004226
249	0xbd2f0bda	-0.042735912
250	0x3d7bc4cb	0.061466973
251	0xbd5226dc	-0.05130659
252	0x3a3474c6	0.00068838557
253	0xbdc4927e	-0.09598254
254	0xbd857852	-0.0651709
255	0xbb2134f7	-0.002459822

h3.bias f4 [50]
0	0x3daf1c19	0.08550281
1	0xba0e0f15	-0.00054191175
2	0xbd4ddfa2	-0.0502621
3	0xbcdc96c9	-0.026927369
4	0x3d9ba824	0.0760043
5	0x3d4e0000	0.05029297
6	0xbd1f3f9e	-0.03887903
7	0x3d4cf865	0.050041575
8	0x3d35a8c2	0.044350393
9	0xbd0370f4	-0.032090142
10	0xbd47b6cb	-0.04875831
11	0x3cbd76db	0.023127964
12	0x3ce13f10	0.02749589
13	0x3df87a85	0.12132744
14	0xbcc4094b	-0.023930212
15	0x3c875230	0.016518682
16	0x3cbb03bf	0.022828935
17	0x3d779b0a	0.06045059
18	0x3d925138	0.071443975
19	0xbd9fa46e	-0.07795034
20	0x3ddcc60d	0.10779963
21	0x3d09c3ee	0.03363412
22	0x3dd38f25	0.10330037
23	0xbdb08008	-0.0861817
24	0x3de00019	0.109375186
25	0x3da57d32	0.0808052
26	0xbd609636	-0.054830752
27	0xbdd34c22	-0.103172556
28	0x3c5d50ce	0.013508035
29	0x3da33296	0.07968633
30	0xbd69f074	-0.05711408
31	0x3d3a120e	0.045427375
32	0x3c8fc668	0.017550662
33	0x3db11b4b	0.08647784
34	0x3dfdeb70	0.12398422
35	0x3d26a9eb	0.04068939
36	0xbc9fca20	-0.01950556
37	0xbcd56111	-0.026047261
38	0x3db7ab46	0.08968215
39	0xbd773e81	-0.060362343
40	0xbd2ca54a	-0.04214982
41	0xbd85f8d3	-0.065416
42	0xbde45005	-0.11148075
43	0x3dde59fe	0.108570084
44	0x3da94fb1	0.08267153
45	0x3d67bd96	0.056577288
46	0x3dbfe5b9	0.09369988
47	0x3db9c992	0.090716496
48	0x3db2c1f1	0.08728398
49	0xbd944d06	-0.072412536

output.weight f4 [2, 50]
0	0x3de4ccc1	0.11171866
1	0xbb1c922e	-0.002389084
2	0x3e0af9f7	0.13571917
3	0x3dffb9da	0.1248662
4	0x3d2f17eb	0.04274742
5	0xbd86c1c5	-0.06579927
6	0x3e0858d7	0.1331514
7	0xbe0edbf6	-0.13951096
8	0xbd1fd9d9	-0.039026115
9	0x3d2c1798	0.04201469
10	0x3d22bec1	0.0397327
11	0xbdd62382	-0.10455991
12	0xbda931fc	-0.08261487
13	0x3d32c6ef	0.04364675
14	0xbcb467fb	-0.022022238
15	0xbde9a894	-0.11409107
16	0x3da9e469	0.08295519
17	0x3e094632	0.13405684
18	0xbbf2591b	-0.007395876
19	0x3d92af3a	0.07162328
20	0x3d4cf3f5	0.050037343
21	0x3dd01cf6	0.10161774
22	0x3bbff502	0.0058580646
23	0x3d2f88f0	0.042855203
24	0x3de8dc59	0.11370153
25	0xbd332a45	-0.043741483
26	0x3ddd0464	0.10791853
27	0x3d22272c	0.03958814
28	0xbde6123e	-0.11233948
29	0x3e056e7f	0.13030432
30	0xbd62c4fa	-0.055363633
31	0xbe0ce1e1	-0.13758041
32	0xbd127df0	-0.035764635
33	0xbe0a40eb	-0.13501327
34	0xbce79ec5	-0.02827395
35	0xbce36020	-0.027755797
36	0xbdd08082	-0.10180761
37	0x3e14bc2a	0.14524904
38	0x3dc96950	0.0983454
39	0x3d91d952	0.07121529
40	0x3e8dd787	0.27703497
41	0xbd6b3d70	-0.05743164
42	0x3d5f16f4	0.05446525
43	0x3e0407d0	0.12893605
44	0x3e08866a	0.13332525
45	0x3d7c3bba	0.061580397
46	0x3da4aff7	0.08041375
47	0x3e138dbb	0.14409535
48	0x3e0df214	0.13861877
49	0xbdc3a298	-0.09552497
50	0x3e0dd928	0.1385237
51	0xbd434fe7	-0.047683623
52	0x3dbbd958	0.091723144
53	0xbe0cb772	-0.13741854
54	0x3e1c1fcf	0.15246509
55	0x3e15c662	0.14626458
56	0xbd255ec0	-0.040373564
57	0x3e259da1	0.16173412
58	0x3d6f1069	0.05836526
59	0xbdbf15e8	-0.0933035
60	0x3db5cabe	0.08876561
61	0xbdb1ab45	-0.08675245
62	0xbd9789b8	-0.07399315
63	0x3e171db4	0.14757425
64	0x3c1d06db	0.009584154
65	0xbd9d70b8	-0.07687515
66	0xbe099d06	-0.13438806
67	0x3c1fc794	0.009752173
68	0x3d414a39	0.047189925
69	0xbcc9a124	-0.02461297
70	0x3cea48e4	0.02859921
71	0x3e0c7766	0.13717422
72	0xbdfe3613	-0.124126576
73	0x3d068954	0.03284581
74	0x3bfcb81d	0.0077123777
75	0xbdfdd48b	-0.12394055
76	0xbe047350	-0.12934613
77	0xbbd67740	-0.0065449774
78	0xbe095392	-0.13410786
79	0x3e285a96	0.16440806
80	0xbdf82c62	-0.1211784
81	0xbb535ff0	-0.0032253228
82	0xbb5e3ec0	-0.0033911914
83	0xbd9f3b9c	-0.077750415
84	0x3e221e68	0.15831912
85	0xbc52cb70	-0.012865886
86	0xbd5e045c	-0.054203376
87	0x3e1332eb	0.14374892
88	0x3d91ae3d	0.071133114
89	0xbd2e4c6c	-0.04255335
90	0xbe6f5fe2	-0.2337642
91	0xbcdef9e8	-0.027218774
92	0xbd102522	-0.035191663
93	0xbced7668	-0.028987125
94	0x3dd36efa	0.103239015
95	0x3c811909	0.015759008
96	0x3d69439f	0.056949254
97	0x3e0dad1e	0.1383557
98	0x3cc67a6a	0.024228293
99	0x3e196ade	0.14982173

output.bias f4 [2]
0	0x3d8b7a19	0.06810398
1	0xbdbd64dc	-0.09247753
